{"format":"graph-model","generatedBy":"1.14.0","convertedBy":"TensorFlow.js Converter v1.2.6","modelTopology":{"node":[{"name":"sub_2","op":"Placeholder","attr":{"dtype":{"type":"DT_FLOAT"},"shape":{"shape":{"dim":[{"size":"1"},{"size":"-1"},{"size":"-1"},{"size":"3"}]}}}},{"name":"MobilenetV1/offset_2/Conv2D_bias","op":"Const","attr":{"dtype":{"type":"DT_FLOAT"},"value":{"tensor":{"dtype":"DT_FLOAT","tensorShape":{"dim":[{"size":"34"}]}}}}},{"name":"MobilenetV1/offset_2/weights","op":"Const","attr":{"dtype":{"type":"DT_FLOAT"},"value":{"tensor":{"dtype":"DT_FLOAT","tensorShape":{"dim":[{"size":"1"},{"size":"1"},{"size":"256"},{"size":"34"}]}}}}},{"name":"MobilenetV1/Conv2d_13_pointwise/Conv2D_bias","op":"Const","attr":{"value":{"tensor":{"dtype":"DT_FLOAT","tensorShape":{"dim":[{"size":"256"}]}}},"dtype":{"type":"DT_FLOAT"}}},{"name":"MobilenetV1/Conv2d_13_pointwise/weights","op":"Const","attr":{"value":{"tensor":{"dtype":"DT_FLOAT","tensorShape":{"dim":[{"size":"1"},{"size":"1"},{"size":"256"},{"size":"256"}]}}},"dtype":{"type":"DT_FLOAT"}}},{"name":"MobilenetV1/Conv2d_13_depthwise/depthwise_bias","op":"Const","attr":{"dtype":{"type":"DT_FLOAT"},"value":{"tensor":{"dtype":"DT_FLOAT","tensorShape":{"dim":[{"size":"256"}]}}}}},{"name":"MobilenetV1/Conv2d_13_depthwise/depthwise_weights","op":"Const","attr":{"value":{"tensor":{"dtype":"DT_FLOAT","tensorShape":{"dim":[{"size":"3"},{"size":"3"},{"size":"256"},{"size":"1"}]}}},"dtype":{"type":"DT_FLOAT"}}},{"name":"MobilenetV1/Conv2d_12_pointwise/Conv2D_bias","op":"Const","attr":{"value":{"tensor":{"dtype":"DT_FLOAT","tensorShape":{"dim":[{"size":"256"}]}}},"dtype":{"type":"DT_FLOAT"}}},{"name":"MobilenetV1/Conv2d_12_pointwise/weights","op":"Const","attr":{"value":{"tensor":{"dtype":"DT_FLOAT","tensorShape":{"dim":[{"size":"1"},{"size":"1"},{"size":"256"},{"size":"256"}]}}},"dtype":{"type":"DT_FLOAT"}}},{"name":"MobilenetV1/Conv2d_12_depthwise/depthwise_bias","op":"Const","attr":{"dtype":{"type":"DT_FLOAT"},"value":{"tensor":{"dtype":"DT_FLOAT","tensorShape":{"dim":[{"size":"256"}]}}}}},{"name":"MobilenetV1/Conv2d_12_depthwise/depthwise_weights","op":"Const","attr":{"value":{"tensor":{"dtype":"DT_FLOAT","tensorShape":{"dim":[{"size":"3"},{"size":"3"},{"size":"256"},{"size":"1"}]}}},"dtype":{"type":"DT_FLOAT"}}},{"name":"MobilenetV1/Conv2d_11_pointwise/Conv2D_bias","op":"Const","attr":{"value":{"tensor":{"dtype":"DT_FLOAT","tensorShape":{"dim":[{"size":"256"}]}}},"dtype":{"type":"DT_FLOAT"}}},{"name":"MobilenetV1/Conv2d_11_pointwise/weights","op":"Const","attr":{"value":{"tensor":{"dtype":"DT_FLOAT","tensorShape":{"dim":[{"size":"1"},{"size":"1"},{"size":"256"},{"size":"256"}]}}},"dtype":{"type":"DT_FLOAT"}}},{"name":"MobilenetV1/Conv2d_11_depthwise/depthwise_bias","op":"Const","attr":{"value":{"tensor":{"dtype":"DT_FLOAT","tensorShape":{"dim":[{"size":"256"}]}}},"dtype":{"type":"DT_FLOAT"}}},{"name":"MobilenetV1/Conv2d_11_depthwise/depthwise_weights","op":"Const","attr":{"value":{"tensor":{"dtype":"DT_FLOAT","tensorShape":{"dim":[{"size":"3"},{"size":"3"},{"size":"256"},{"size":"1"}]}}},"dtype":{"type":"DT_FLOAT"}}},{"name":"MobilenetV1/Conv2d_10_pointwise/Conv2D_bias","op":"Const","attr":{"value":{"tensor":{"dtype":"DT_FLOAT","tensorShape":{"dim":[{"size":"256"}]}}},"dtype":{"type":"DT_FLOAT"}}},{"name":"MobilenetV1/Conv2d_10_pointwise/weights","op":"Const","attr":{"value":{"tensor":{"dtype":"DT_FLOAT","tensorShape":{"dim":[{"size":"1"},{"size":"1"},{"size":"256"},{"size":"256"}]}}},"dtype":{"type":"DT_FLOAT"}}},{"name":"MobilenetV1/Conv2d_10_depthwise/depthwise_bias","op":"Const","attr":{"value":{"tensor":{"dtype":"DT_FLOAT","tensorShape":{"dim":[{"size":"256"}]}}},"dtype":{"type":"DT_FLOAT"}}},{"name":"MobilenetV1/Conv2d_10_depthwise/depthwise_weights","op":"Const","attr":{"value":{"tensor":{"dtype":"DT_FLOAT","tensorShape":{"dim":[{"size":"3"},{"size":"3"},{"size":"256"},{"size":"1"}]}}},"dtype":{"type":"DT_FLOAT"}}},{"name":"MobilenetV1/Conv2d_9_pointwise/Conv2D_bias","op":"Const","attr":{"value":{"tensor":{"dtype":"DT_FLOAT","tensorShape":{"dim":[{"size":"256"}]}}},"dtype":{"type":"DT_FLOAT"}}},{"name":"MobilenetV1/Conv2d_9_pointwise/weights","op":"Const","attr":{"value":{"tensor":{"dtype":"DT_FLOAT","tensorShape":{"dim":[{"size":"1"},{"size":"1"},{"size":"256"},{"size":"256"}]}}},"dtype":{"type":"DT_FLOAT"}}},{"name":"MobilenetV1/Conv2d_9_depthwise/depthwise_bias","op":"Const","attr":{"value":{"tensor":{"dtype":"DT_FLOAT","tensorShape":{"dim":[{"size":"256"}]}}},"dtype":{"type":"DT_FLOAT"}}},{"name":"MobilenetV1/Conv2d_9_depthwise/depthwise_weights","op":"Const","attr":{"value":{"tensor":{"dtype":"DT_FLOAT","tensorShape":{"dim":[{"size":"3"},{"size":"3"},{"size":"256"},{"size":"1"}]}}},"dtype":{"type":"DT_FLOAT"}}},{"name":"MobilenetV1/Conv2d_8_pointwise/Conv2D_bias","op":"Const","attr":{"dtype":{"type":"DT_FLOAT"},"value":{"tensor":{"dtype":"DT_FLOAT","tensorShape":{"dim":[{"size":"256"}]}}}}},{"name":"MobilenetV1/Conv2d_8_pointwise/weights","op":"Const","attr":{"value":{"tensor":{"dtype":"DT_FLOAT","tensorShape":{"dim":[{"size":"1"},{"size":"1"},{"size":"256"},{"size":"256"}]}}},"dtype":{"type":"DT_FLOAT"}}},{"name":"MobilenetV1/Conv2d_8_depthwise/depthwise_bias","op":"Const","attr":{"value":{"tensor":{"dtype":"DT_FLOAT","tensorShape":{"dim":[{"size":"256"}]}}},"dtype":{"type":"DT_FLOAT"}}},{"name":"MobilenetV1/Conv2d_8_depthwise/depthwise_weights","op":"Const","attr":{"value":{"tensor":{"dtype":"DT_FLOAT","tensorShape":{"dim":[{"size":"3"},{"size":"3"},{"size":"256"},{"size":"1"}]}}},"dtype":{"type":"DT_FLOAT"}}},{"name":"MobilenetV1/Conv2d_7_pointwise/Conv2D_bias","op":"Const","attr":{"dtype":{"type":"DT_FLOAT"},"value":{"tensor":{"dtype":"DT_FLOAT","tensorShape":{"dim":[{"size":"256"}]}}}}},{"name":"MobilenetV1/Conv2d_7_pointwise/weights","op":"Const","attr":{"value":{"tensor":{"dtype":"DT_FLOAT","tensorShape":{"dim":[{"size":"1"},{"size":"1"},{"size":"256"},{"size":"256"}]}}},"dtype":{"type":"DT_FLOAT"}}},{"name":"MobilenetV1/Conv2d_7_depthwise/depthwise_bias","op":"Const","attr":{"value":{"tensor":{"dtype":"DT_FLOAT","tensorShape":{"dim":[{"size":"256"}]}}},"dtype":{"type":"DT_FLOAT"}}},{"name":"MobilenetV1/Conv2d_7_depthwise/depthwise_weights","op":"Const","attr":{"value":{"tensor":{"dtype":"DT_FLOAT","tensorShape":{"dim":[{"size":"3"},{"size":"3"},{"size":"256"},{"size":"1"}]}}},"dtype":{"type":"DT_FLOAT"}}},{"name":"MobilenetV1/Conv2d_6_pointwise/Conv2D_bias","op":"Const","attr":{"value":{"tensor":{"dtype":"DT_FLOAT","tensorShape":{"dim":[{"size":"256"}]}}},"dtype":{"type":"DT_FLOAT"}}},{"name":"MobilenetV1/Conv2d_6_pointwise/weights","op":"Const","attr":{"value":{"tensor":{"dtype":"DT_FLOAT","tensorShape":{"dim":[{"size":"1"},{"size":"1"},{"size":"128"},{"size":"256"}]}}},"dtype":{"type":"DT_FLOAT"}}},{"name":"MobilenetV1/Conv2d_6_depthwise/depthwise_bias","op":"Const","attr":{"value":{"tensor":{"dtype":"DT_FLOAT","tensorShape":{"dim":[{"size":"128"}]}}},"dtype":{"type":"DT_FLOAT"}}},{"name":"MobilenetV1/Conv2d_6_depthwise/depthwise_weights","op":"Const","attr":{"value":{"tensor":{"dtype":"DT_FLOAT","tensorShape":{"dim":[{"size":"3"},{"size":"3"},{"size":"128"},{"size":"1"}]}}},"dtype":{"type":"DT_FLOAT"}}},{"name":"MobilenetV1/Conv2d_5_pointwise/Conv2D_bias","op":"Const","attr":{"value":{"tensor":{"dtype":"DT_FLOAT","tensorShape":{"dim":[{"size":"128"}]}}},"dtype":{"type":"DT_FLOAT"}}},{"name":"MobilenetV1/Conv2d_5_pointwise/weights","op":"Const","attr":{"value":{"tensor":{"dtype":"DT_FLOAT","tensorShape":{"dim":[{"size":"1"},{"size":"1"},{"size":"128"},{"size":"128"}]}}},"dtype":{"type":"DT_FLOAT"}}},{"name":"MobilenetV1/Conv2d_5_depthwise/depthwise_bias","op":"Const","attr":{"value":{"tensor":{"dtype":"DT_FLOAT","tensorShape":{"dim":[{"size":"128"}]}}},"dtype":{"type":"DT_FLOAT"}}},{"name":"MobilenetV1/Conv2d_5_depthwise/depthwise_weights","op":"Const","attr":{"value":{"tensor":{"dtype":"DT_FLOAT","tensorShape":{"dim":[{"size":"3"},{"size":"3"},{"size":"128"},{"size":"1"}]}}},"dtype":{"type":"DT_FLOAT"}}},{"name":"MobilenetV1/Conv2d_4_pointwise/Conv2D_bias","op":"Const","attr":{"value":{"tensor":{"dtype":"DT_FLOAT","tensorShape":{"dim":[{"size":"128"}]}}},"dtype":{"type":"DT_FLOAT"}}},{"name":"MobilenetV1/Conv2d_4_pointwise/weights","op":"Const","attr":{"value":{"tensor":{"dtype":"DT_FLOAT","tensorShape":{"dim":[{"size":"1"},{"size":"1"},{"size":"64"},{"size":"128"}]}}},"dtype":{"type":"DT_FLOAT"}}},{"name":"MobilenetV1/Conv2d_4_depthwise/depthwise_bias","op":"Const","attr":{"dtype":{"type":"DT_FLOAT"},"value":{"tensor":{"dtype":"DT_FLOAT","tensorShape":{"dim":[{"size":"64"}]}}}}},{"name":"MobilenetV1/Conv2d_4_depthwise/depthwise_weights","op":"Const","attr":{"value":{"tensor":{"dtype":"DT_FLOAT","tensorShape":{"dim":[{"size":"3"},{"size":"3"},{"size":"64"},{"size":"1"}]}}},"dtype":{"type":"DT_FLOAT"}}},{"name":"MobilenetV1/Conv2d_3_pointwise/Conv2D_bias","op":"Const","attr":{"value":{"tensor":{"dtype":"DT_FLOAT","tensorShape":{"dim":[{"size":"64"}]}}},"dtype":{"type":"DT_FLOAT"}}},{"name":"MobilenetV1/Conv2d_3_pointwise/weights","op":"Const","attr":{"dtype":{"type":"DT_FLOAT"},"value":{"tensor":{"dtype":"DT_FLOAT","tensorShape":{"dim":[{"size":"1"},{"size":"1"},{"size":"64"},{"size":"64"}]}}}}},{"name":"MobilenetV1/Conv2d_3_depthwise/depthwise_bias","op":"Const","attr":{"dtype":{"type":"DT_FLOAT"},"value":{"tensor":{"dtype":"DT_FLOAT","tensorShape":{"dim":[{"size":"64"}]}}}}},{"name":"MobilenetV1/Conv2d_3_depthwise/depthwise_weights","op":"Const","attr":{"value":{"tensor":{"dtype":"DT_FLOAT","tensorShape":{"dim":[{"size":"3"},{"size":"3"},{"size":"64"},{"size":"1"}]}}},"dtype":{"type":"DT_FLOAT"}}},{"name":"MobilenetV1/Conv2d_2_pointwise/Conv2D_bias","op":"Const","attr":{"dtype":{"type":"DT_FLOAT"},"value":{"tensor":{"dtype":"DT_FLOAT","tensorShape":{"dim":[{"size":"64"}]}}}}},{"name":"MobilenetV1/Conv2d_2_pointwise/weights","op":"Const","attr":{"dtype":{"type":"DT_FLOAT"},"value":{"tensor":{"dtype":"DT_FLOAT","tensorShape":{"dim":[{"size":"1"},{"size":"1"},{"size":"32"},{"size":"64"}]}}}}},{"name":"MobilenetV1/Conv2d_2_depthwise/depthwise_bias","op":"Const","attr":{"value":{"tensor":{"dtype":"DT_FLOAT","tensorShape":{"dim":[{"size":"32"}]}}},"dtype":{"type":"DT_FLOAT"}}},{"name":"MobilenetV1/Conv2d_2_depthwise/depthwise_weights","op":"Const","attr":{"value":{"tensor":{"dtype":"DT_FLOAT","tensorShape":{"dim":[{"size":"3"},{"size":"3"},{"size":"32"},{"size":"1"}]}}},"dtype":{"type":"DT_FLOAT"}}},{"name":"MobilenetV1/Conv2d_1_pointwise/Conv2D_bias","op":"Const","attr":{"value":{"tensor":{"dtype":"DT_FLOAT","tensorShape":{"dim":[{"size":"32"}]}}},"dtype":{"type":"DT_FLOAT"}}},{"name":"MobilenetV1/Conv2d_1_pointwise/weights","op":"Const","attr":{"value":{"tensor":{"dtype":"DT_FLOAT","tensorShape":{"dim":[{"size":"1"},{"size":"1"},{"size":"16"},{"size":"32"}]}}},"dtype":{"type":"DT_FLOAT"}}},{"name":"MobilenetV1/Conv2d_1_depthwise/depthwise_bias","op":"Const","attr":{"value":{"tensor":{"dtype":"DT_FLOAT","tensorShape":{"dim":[{"size":"16"}]}}},"dtype":{"type":"DT_FLOAT"}}},{"name":"MobilenetV1/Conv2d_1_depthwise/depthwise_weights","op":"Const","attr":{"value":{"tensor":{"dtype":"DT_FLOAT","tensorShape":{"dim":[{"size":"3"},{"size":"3"},{"size":"16"},{"size":"1"}]}}},"dtype":{"type":"DT_FLOAT"}}},{"name":"MobilenetV1/Conv2d_0/Conv2D_bias","op":"Const","attr":{"dtype":{"type":"DT_FLOAT"},"value":{"tensor":{"dtype":"DT_FLOAT","tensorShape":{"dim":[{"size":"16"}]}}}}},{"name":"MobilenetV1/Conv2d_0/weights","op":"Const","attr":{"value":{"tensor":{"dtype":"DT_FLOAT","tensorShape":{"dim":[{"size":"3"},{"size":"3"},{"size":"3"},{"size":"16"}]}}},"dtype":{"type":"DT_FLOAT"}}},{"name":"MobilenetV1/segment_2/Conv2D_bias","op":"Const","attr":{"value":{"tensor":{"dtype":"DT_FLOAT","tensorShape":{"dim":[{"size":"1"}]}}},"dtype":{"type":"DT_FLOAT"}}},{"name":"MobilenetV1/segment_2/weights","op":"Const","attr":{"value":{"tensor":{"dtype":"DT_FLOAT","tensorShape":{"dim":[{"size":"1"},{"size":"1"},{"size":"256"},{"size":"1"}]}}},"dtype":{"type":"DT_FLOAT"}}},{"name":"clip_by_value/y","op":"Const","attr":{"value":{"tensor":{"dtype":"DT_FLOAT","tensorShape":{}}},"dtype":{"type":"DT_FLOAT"}}},{"name":"clip_by_value/Minimum/y","op":"Const","attr":{"value":{"tensor":{"dtype":"DT_FLOAT","tensorShape":{}}},"dtype":{"type":"DT_FLOAT"}}},{"name":"MobilenetV1/part_offset_2/Conv2D_bias","op":"Const","attr":{"value":{"tensor":{"dtype":"DT_FLOAT","tensorShape":{"dim":[{"size":"48"}]}}},"dtype":{"type":"DT_FLOAT"}}},{"name":"MobilenetV1/part_offset_2/weights","op":"Const","attr":{"value":{"tensor":{"dtype":"DT_FLOAT","tensorShape":{"dim":[{"size":"1"},{"size":"1"},{"size":"256"},{"size":"48"}]}}},"dtype":{"type":"DT_FLOAT"}}},{"name":"MobilenetV1/part_heatmap_2/Conv2D_bias","op":"Const","attr":{"value":{"tensor":{"dtype":"DT_FLOAT","tensorShape":{"dim":[{"size":"24"}]}}},"dtype":{"type":"DT_FLOAT"}}},{"name":"MobilenetV1/part_heatmap_2/weights","op":"Const","attr":{"value":{"tensor":{"dtype":"DT_FLOAT","tensorShape":{"dim":[{"size":"1"},{"size":"1"},{"size":"256"},{"size":"24"}]}}},"dtype":{"type":"DT_FLOAT"}}},{"name":"MobilenetV1/embedding_2/Conv2D_bias","op":"Const","attr":{"value":{"tensor":{"dtype":"DT_FLOAT","tensorShape":{"dim":[{"size":"34"}]}}},"dtype":{"type":"DT_FLOAT"}}},{"name":"MobilenetV1/embedding_2/weights","op":"Const","attr":{"value":{"tensor":{"dtype":"DT_FLOAT","tensorShape":{"dim":[{"size":"1"},{"size":"1"},{"size":"256"},{"size":"34"}]}}},"dtype":{"type":"DT_FLOAT"}}},{"name":"MobilenetV1/heatmap_2/Conv2D_bias","op":"Const","attr":{"value":{"tensor":{"dtype":"DT_FLOAT","tensorShape":{"dim":[{"size":"17"}]}}},"dtype":{"type":"DT_FLOAT"}}},{"name":"MobilenetV1/heatmap_2/weights","op":"Const","attr":{"value":{"tensor":{"dtype":"DT_FLOAT","tensorShape":{"dim":[{"size":"1"},{"size":"1"},{"size":"256"},{"size":"17"}]}}},"dtype":{"type":"DT_FLOAT"}}},{"name":"MobilenetV1/displacement_fwd_2/Conv2D_bias","op":"Const","attr":{"value":{"tensor":{"dtype":"DT_FLOAT","tensorShape":{"dim":[{"size":"32"}]}}},"dtype":{"type":"DT_FLOAT"}}},{"name":"MobilenetV1/displacement_fwd_2/weights","op":"Const","attr":{"value":{"tensor":{"dtype":"DT_FLOAT","tensorShape":{"dim":[{"size":"1"},{"size":"1"},{"size":"256"},{"size":"32"}]}}},"dtype":{"type":"DT_FLOAT"}}},{"name":"MobilenetV1/displacement_bwd_2/Conv2D_bias","op":"Const","attr":{"value":{"tensor":{"dtype":"DT_FLOAT","tensorShape":{"dim":[{"size":"32"}]}}},"dtype":{"type":"DT_FLOAT"}}},{"name":"MobilenetV1/displacement_bwd_2/weights","op":"Const","attr":{"dtype":{"type":"DT_FLOAT"},"value":{"tensor":{"dtype":"DT_FLOAT","tensorShape":{"dim":[{"size":"1"},{"size":"1"},{"size":"256"},{"size":"32"}]}}}}},{"name":"MobilenetV1/Conv2d_0/BatchNorm/batchnorm_1/add_1/conv","op":"Conv2D","input":["sub_2","MobilenetV1/Conv2d_0/weights"],"attr":{"dilations":{"list":{"i":["1","1","1","1"]}},"T":{"type":"DT_FLOAT"},"strides":{"list":{"i":["1","2","2","1"]}},"data_format":{"s":"TkhXQw=="},"use_cudnn_on_gpu":{"b":true},"explicit_paddings":{"list":{}},"padding":{"s":"U0FNRQ=="}}},{"name":"MobilenetV1/Conv2d_0/BatchNorm/batchnorm_1/add_1","op":"BiasAdd","input":["MobilenetV1/Conv2d_0/BatchNorm/batchnorm_1/add_1/conv","MobilenetV1/Conv2d_0/Conv2D_bias"],"attr":{"T":{"type":"DT_FLOAT"},"data_format":{"s":"TkhXQw=="}}},{"name":"MobilenetV1/Conv2d_0/Relu6","op":"Relu6","input":["MobilenetV1/Conv2d_0/BatchNorm/batchnorm_1/add_1"],"attr":{"T":{"type":"DT_FLOAT"}}},{"name":"MobilenetV1/Conv2d_1_depthwise/BatchNorm/batchnorm_1/add_1/conv","op":"DepthwiseConv2dNative","input":["MobilenetV1/Conv2d_0/Relu6","MobilenetV1/Conv2d_1_depthwise/depthwise_weights"],"attr":{"padding":{"s":"U0FNRQ=="},"dilations":{"list":{"i":["1","1","1","1"]}},"T":{"type":"DT_FLOAT"},"strides":{"list":{"i":["1","1","1","1"]}},"data_format":{"s":"TkhXQw=="}}},{"name":"MobilenetV1/Conv2d_1_depthwise/BatchNorm/batchnorm_1/add_1","op":"BiasAdd","input":["MobilenetV1/Conv2d_1_depthwise/BatchNorm/batchnorm_1/add_1/conv","MobilenetV1/Conv2d_1_depthwise/depthwise_bias"],"attr":{"T":{"type":"DT_FLOAT"},"data_format":{"s":"TkhXQw=="}}},{"name":"MobilenetV1/Conv2d_1_depthwise/Relu6","op":"Relu6","input":["MobilenetV1/Conv2d_1_depthwise/BatchNorm/batchnorm_1/add_1"],"attr":{"T":{"type":"DT_FLOAT"}}},{"name":"MobilenetV1/Conv2d_1_pointwise/BatchNorm/batchnorm_1/add_1/conv","op":"Conv2D","input":["MobilenetV1/Conv2d_1_depthwise/Relu6","MobilenetV1/Conv2d_1_pointwise/weights"],"attr":{"padding":{"s":"U0FNRQ=="},"dilations":{"list":{"i":["1","1","1","1"]}},"T":{"type":"DT_FLOAT"},"strides":{"list":{"i":["1","1","1","1"]}},"data_format":{"s":"TkhXQw=="},"use_cudnn_on_gpu":{"b":true},"explicit_paddings":{"list":{}}}},{"name":"MobilenetV1/Conv2d_1_pointwise/BatchNorm/batchnorm_1/add_1","op":"BiasAdd","input":["MobilenetV1/Conv2d_1_pointwise/BatchNorm/batchnorm_1/add_1/conv","MobilenetV1/Conv2d_1_pointwise/Conv2D_bias"],"attr":{"data_format":{"s":"TkhXQw=="},"T":{"type":"DT_FLOAT"}}},{"name":"MobilenetV1/Conv2d_1_pointwise/Relu6","op":"Relu6","input":["MobilenetV1/Conv2d_1_pointwise/BatchNorm/batchnorm_1/add_1"],"attr":{"T":{"type":"DT_FLOAT"}}},{"name":"MobilenetV1/Conv2d_2_depthwise/BatchNorm/batchnorm_1/add_1/conv","op":"DepthwiseConv2dNative","input":["MobilenetV1/Conv2d_1_pointwise/Relu6","MobilenetV1/Conv2d_2_depthwise/depthwise_weights"],"attr":{"T":{"type":"DT_FLOAT"},"strides":{"list":{"i":["1","2","2","1"]}},"data_format":{"s":"TkhXQw=="},"dilations":{"list":{"i":["1","1","1","1"]}},"padding":{"s":"U0FNRQ=="}}},{"name":"MobilenetV1/Conv2d_2_depthwise/BatchNorm/batchnorm_1/add_1","op":"BiasAdd","input":["MobilenetV1/Conv2d_2_depthwise/BatchNorm/batchnorm_1/add_1/conv","MobilenetV1/Conv2d_2_depthwise/depthwise_bias"],"attr":{"T":{"type":"DT_FLOAT"},"data_format":{"s":"TkhXQw=="}}},{"name":"MobilenetV1/Conv2d_2_depthwise/Relu6","op":"Relu6","input":["MobilenetV1/Conv2d_2_depthwise/BatchNorm/batchnorm_1/add_1"],"attr":{"T":{"type":"DT_FLOAT"}}},{"name":"MobilenetV1/Conv2d_2_pointwise/BatchNorm/batchnorm_1/add_1/conv","op":"Conv2D","input":["MobilenetV1/Conv2d_2_depthwise/Relu6","MobilenetV1/Conv2d_2_pointwise/weights"],"attr":{"padding":{"s":"U0FNRQ=="},"dilations":{"list":{"i":["1","1","1","1"]}},"T":{"type":"DT_FLOAT"},"strides":{"list":{"i":["1","1","1","1"]}},"data_format":{"s":"TkhXQw=="},"use_cudnn_on_gpu":{"b":true},"explicit_paddings":{"list":{}}}},{"name":"MobilenetV1/Conv2d_2_pointwise/BatchNorm/batchnorm_1/add_1","op":"BiasAdd","input":["MobilenetV1/Conv2d_2_pointwise/BatchNorm/batchnorm_1/add_1/conv","MobilenetV1/Conv2d_2_pointwise/Conv2D_bias"],"attr":{"T":{"type":"DT_FLOAT"},"data_format":{"s":"TkhXQw=="}}},{"name":"MobilenetV1/Conv2d_2_pointwise/Relu6","op":"Relu6","input":["MobilenetV1/Conv2d_2_pointwise/BatchNorm/batchnorm_1/add_1"],"attr":{"T":{"type":"DT_FLOAT"}}},{"name":"MobilenetV1/Conv2d_3_depthwise/BatchNorm/batchnorm_1/add_1/conv","op":"DepthwiseConv2dNative","input":["MobilenetV1/Conv2d_2_pointwise/Relu6","MobilenetV1/Conv2d_3_depthwise/depthwise_weights"],"attr":{"padding":{"s":"U0FNRQ=="},"dilations":{"list":{"i":["1","1","1","1"]}},"T":{"type":"DT_FLOAT"},"data_format":{"s":"TkhXQw=="},"strides":{"list":{"i":["1","1","1","1"]}}}},{"name":"MobilenetV1/Conv2d_3_depthwise/BatchNorm/batchnorm_1/add_1","op":"BiasAdd","input":["MobilenetV1/Conv2d_3_depthwise/BatchNorm/batchnorm_1/add_1/conv","MobilenetV1/Conv2d_3_depthwise/depthwise_bias"],"attr":{"data_format":{"s":"TkhXQw=="},"T":{"type":"DT_FLOAT"}}},{"name":"MobilenetV1/Conv2d_3_depthwise/Relu6","op":"Relu6","input":["MobilenetV1/Conv2d_3_depthwise/BatchNorm/batchnorm_1/add_1"],"attr":{"T":{"type":"DT_FLOAT"}}},{"name":"MobilenetV1/Conv2d_3_pointwise/BatchNorm/batchnorm_1/add_1/conv","op":"Conv2D","input":["MobilenetV1/Conv2d_3_depthwise/Relu6","MobilenetV1/Conv2d_3_pointwise/weights"],"attr":{"dilations":{"list":{"i":["1","1","1","1"]}},"T":{"type":"DT_FLOAT"},"data_format":{"s":"TkhXQw=="},"strides":{"list":{"i":["1","1","1","1"]}},"use_cudnn_on_gpu":{"b":true},"explicit_paddings":{"list":{}},"padding":{"s":"U0FNRQ=="}}},{"name":"MobilenetV1/Conv2d_3_pointwise/BatchNorm/batchnorm_1/add_1","op":"BiasAdd","input":["MobilenetV1/Conv2d_3_pointwise/BatchNorm/batchnorm_1/add_1/conv","MobilenetV1/Conv2d_3_pointwise/Conv2D_bias"],"attr":{"data_format":{"s":"TkhXQw=="},"T":{"type":"DT_FLOAT"}}},{"name":"MobilenetV1/Conv2d_3_pointwise/Relu6","op":"Relu6","input":["MobilenetV1/Conv2d_3_pointwise/BatchNorm/batchnorm_1/add_1"],"attr":{"T":{"type":"DT_FLOAT"}}},{"name":"MobilenetV1/Conv2d_4_depthwise/BatchNorm/batchnorm_1/add_1/conv","op":"DepthwiseConv2dNative","input":["MobilenetV1/Conv2d_3_pointwise/Relu6","MobilenetV1/Conv2d_4_depthwise/depthwise_weights"],"attr":{"padding":{"s":"U0FNRQ=="},"dilations":{"list":{"i":["1","1","1","1"]}},"T":{"type":"DT_FLOAT"},"data_format":{"s":"TkhXQw=="},"strides":{"list":{"i":["1","2","2","1"]}}}},{"name":"MobilenetV1/Conv2d_4_depthwise/BatchNorm/batchnorm_1/add_1","op":"BiasAdd","input":["MobilenetV1/Conv2d_4_depthwise/BatchNorm/batchnorm_1/add_1/conv","MobilenetV1/Conv2d_4_depthwise/depthwise_bias"],"attr":{"T":{"type":"DT_FLOAT"},"data_format":{"s":"TkhXQw=="}}},{"name":"MobilenetV1/Conv2d_4_depthwise/Relu6","op":"Relu6","input":["MobilenetV1/Conv2d_4_depthwise/BatchNorm/batchnorm_1/add_1"],"attr":{"T":{"type":"DT_FLOAT"}}},{"name":"MobilenetV1/Conv2d_4_pointwise/BatchNorm/batchnorm_1/add_1/conv","op":"Conv2D","input":["MobilenetV1/Conv2d_4_depthwise/Relu6","MobilenetV1/Conv2d_4_pointwise/weights"],"attr":{"dilations":{"list":{"i":["1","1","1","1"]}},"T":{"type":"DT_FLOAT"},"strides":{"list":{"i":["1","1","1","1"]}},"data_format":{"s":"TkhXQw=="},"use_cudnn_on_gpu":{"b":true},"explicit_paddings":{"list":{}},"padding":{"s":"U0FNRQ=="}}},{"name":"MobilenetV1/Conv2d_4_pointwise/BatchNorm/batchnorm_1/add_1","op":"BiasAdd","input":["MobilenetV1/Conv2d_4_pointwise/BatchNorm/batchnorm_1/add_1/conv","MobilenetV1/Conv2d_4_pointwise/Conv2D_bias"],"attr":{"T":{"type":"DT_FLOAT"},"data_format":{"s":"TkhXQw=="}}},{"name":"MobilenetV1/Conv2d_4_pointwise/Relu6","op":"Relu6","input":["MobilenetV1/Conv2d_4_pointwise/BatchNorm/batchnorm_1/add_1"],"attr":{"T":{"type":"DT_FLOAT"}}},{"name":"MobilenetV1/Conv2d_5_depthwise/BatchNorm/batchnorm_1/add_1/conv","op":"DepthwiseConv2dNative","input":["MobilenetV1/Conv2d_4_pointwise/Relu6","MobilenetV1/Conv2d_5_depthwise/depthwise_weights"],"attr":{"padding":{"s":"U0FNRQ=="},"dilations":{"list":{"i":["1","1","1","1"]}},"T":{"type":"DT_FLOAT"},"data_format":{"s":"TkhXQw=="},"strides":{"list":{"i":["1","1","1","1"]}}}},{"name":"MobilenetV1/Conv2d_5_depthwise/BatchNorm/batchnorm_1/add_1","op":"BiasAdd","input":["MobilenetV1/Conv2d_5_depthwise/BatchNorm/batchnorm_1/add_1/conv","MobilenetV1/Conv2d_5_depthwise/depthwise_bias"],"attr":{"data_format":{"s":"TkhXQw=="},"T":{"type":"DT_FLOAT"}}},{"name":"MobilenetV1/Conv2d_5_depthwise/Relu6","op":"Relu6","input":["MobilenetV1/Conv2d_5_depthwise/BatchNorm/batchnorm_1/add_1"],"attr":{"T":{"type":"DT_FLOAT"}}},{"name":"MobilenetV1/Conv2d_5_pointwise/BatchNorm/batchnorm_1/add_1/conv","op":"Conv2D","input":["MobilenetV1/Conv2d_5_depthwise/Relu6","MobilenetV1/Conv2d_5_pointwise/weights"],"attr":{"dilations":{"list":{"i":["1","1","1","1"]}},"T":{"type":"DT_FLOAT"},"data_format":{"s":"TkhXQw=="},"strides":{"list":{"i":["1","1","1","1"]}},"explicit_paddings":{"list":{}},"use_cudnn_on_gpu":{"b":true},"padding":{"s":"U0FNRQ=="}}},{"name":"MobilenetV1/Conv2d_5_pointwise/BatchNorm/batchnorm_1/add_1","op":"BiasAdd","input":["MobilenetV1/Conv2d_5_pointwise/BatchNorm/batchnorm_1/add_1/conv","MobilenetV1/Conv2d_5_pointwise/Conv2D_bias"],"attr":{"T":{"type":"DT_FLOAT"},"data_format":{"s":"TkhXQw=="}}},{"name":"MobilenetV1/Conv2d_5_pointwise/Relu6","op":"Relu6","input":["MobilenetV1/Conv2d_5_pointwise/BatchNorm/batchnorm_1/add_1"],"attr":{"T":{"type":"DT_FLOAT"}}},{"name":"MobilenetV1/Conv2d_6_depthwise/BatchNorm/batchnorm_1/add_1/conv","op":"DepthwiseConv2dNative","input":["MobilenetV1/Conv2d_5_pointwise/Relu6","MobilenetV1/Conv2d_6_depthwise/depthwise_weights"],"attr":{"data_format":{"s":"TkhXQw=="},"strides":{"list":{"i":["1","1","1","1"]}},"dilations":{"list":{"i":["1","1","1","1"]}},"padding":{"s":"U0FNRQ=="},"T":{"type":"DT_FLOAT"}}},{"name":"MobilenetV1/Conv2d_6_depthwise/BatchNorm/batchnorm_1/add_1","op":"BiasAdd","input":["MobilenetV1/Conv2d_6_depthwise/BatchNorm/batchnorm_1/add_1/conv","MobilenetV1/Conv2d_6_depthwise/depthwise_bias"],"attr":{"T":{"type":"DT_FLOAT"},"data_format":{"s":"TkhXQw=="}}},{"name":"MobilenetV1/Conv2d_6_depthwise/Relu6","op":"Relu6","input":["MobilenetV1/Conv2d_6_depthwise/BatchNorm/batchnorm_1/add_1"],"attr":{"T":{"type":"DT_FLOAT"}}},{"name":"MobilenetV1/Conv2d_6_pointwise/BatchNorm/batchnorm_1/add_1/conv","op":"Conv2D","input":["MobilenetV1/Conv2d_6_depthwise/Relu6","MobilenetV1/Conv2d_6_pointwise/weights"],"attr":{"dilations":{"list":{"i":["1","1","1","1"]}},"T":{"type":"DT_FLOAT"},"data_format":{"s":"TkhXQw=="},"strides":{"list":{"i":["1","1","1","1"]}},"explicit_paddings":{"list":{}},"use_cudnn_on_gpu":{"b":true},"padding":{"s":"U0FNRQ=="}}},{"name":"MobilenetV1/Conv2d_6_pointwise/BatchNorm/batchnorm_1/add_1","op":"BiasAdd","input":["MobilenetV1/Conv2d_6_pointwise/BatchNorm/batchnorm_1/add_1/conv","MobilenetV1/Conv2d_6_pointwise/Conv2D_bias"],"attr":{"T":{"type":"DT_FLOAT"},"data_format":{"s":"TkhXQw=="}}},{"name":"MobilenetV1/Conv2d_6_pointwise/Relu6","op":"Relu6","input":["MobilenetV1/Conv2d_6_pointwise/BatchNorm/batchnorm_1/add_1"],"attr":{"T":{"type":"DT_FLOAT"}}},{"name":"MobilenetV1/Conv2d_7_depthwise/BatchNorm/batchnorm_1/add_1/conv","op":"DepthwiseConv2dNative","input":["MobilenetV1/Conv2d_6_pointwise/Relu6","MobilenetV1/Conv2d_7_depthwise/depthwise_weights"],"attr":{"padding":{"s":"U0FNRQ=="},"dilations":{"list":{"i":["2","2","1","1"]}},"T":{"type":"DT_FLOAT"},"strides":{"list":{"i":["1","1","1","1"]}},"data_format":{"s":"TkhXQw=="}}},{"name":"MobilenetV1/Conv2d_7_depthwise/BatchNorm/batchnorm_1/add_1","op":"BiasAdd","input":["MobilenetV1/Conv2d_7_depthwise/BatchNorm/batchnorm_1/add_1/conv","MobilenetV1/Conv2d_7_depthwise/depthwise_bias"],"attr":{"T":{"type":"DT_FLOAT"},"data_format":{"s":"TkhXQw=="}}},{"name":"MobilenetV1/Conv2d_7_depthwise/Relu6","op":"Relu6","input":["MobilenetV1/Conv2d_7_depthwise/BatchNorm/batchnorm_1/add_1"],"attr":{"T":{"type":"DT_FLOAT"}}},{"name":"MobilenetV1/Conv2d_7_pointwise/BatchNorm/batchnorm_1/add_1/conv","op":"Conv2D","input":["MobilenetV1/Conv2d_7_depthwise/Relu6","MobilenetV1/Conv2d_7_pointwise/weights"],"attr":{"dilations":{"list":{"i":["1","1","1","1"]}},"T":{"type":"DT_FLOAT"},"strides":{"list":{"i":["1","1","1","1"]}},"data_format":{"s":"TkhXQw=="},"use_cudnn_on_gpu":{"b":true},"explicit_paddings":{"list":{}},"padding":{"s":"U0FNRQ=="}}},{"name":"MobilenetV1/Conv2d_7_pointwise/BatchNorm/batchnorm_1/add_1","op":"BiasAdd","input":["MobilenetV1/Conv2d_7_pointwise/BatchNorm/batchnorm_1/add_1/conv","MobilenetV1/Conv2d_7_pointwise/Conv2D_bias"],"attr":{"T":{"type":"DT_FLOAT"},"data_format":{"s":"TkhXQw=="}}},{"name":"MobilenetV1/Conv2d_7_pointwise/Relu6","op":"Relu6","input":["MobilenetV1/Conv2d_7_pointwise/BatchNorm/batchnorm_1/add_1"],"attr":{"T":{"type":"DT_FLOAT"}}},{"name":"MobilenetV1/Conv2d_8_depthwise/BatchNorm/batchnorm_1/add_1/conv","op":"DepthwiseConv2dNative","input":["MobilenetV1/Conv2d_7_pointwise/Relu6","MobilenetV1/Conv2d_8_depthwise/depthwise_weights"],"attr":{"T":{"type":"DT_FLOAT"},"strides":{"list":{"i":["1","1","1","1"]}},"data_format":{"s":"TkhXQw=="},"padding":{"s":"U0FNRQ=="},"dilations":{"list":{"i":["2","2","1","1"]}}}},{"name":"MobilenetV1/Conv2d_8_depthwise/BatchNorm/batchnorm_1/add_1","op":"BiasAdd","input":["MobilenetV1/Conv2d_8_depthwise/BatchNorm/batchnorm_1/add_1/conv","MobilenetV1/Conv2d_8_depthwise/depthwise_bias"],"attr":{"data_format":{"s":"TkhXQw=="},"T":{"type":"DT_FLOAT"}}},{"name":"MobilenetV1/Conv2d_8_depthwise/Relu6","op":"Relu6","input":["MobilenetV1/Conv2d_8_depthwise/BatchNorm/batchnorm_1/add_1"],"attr":{"T":{"type":"DT_FLOAT"}}},{"name":"MobilenetV1/Conv2d_8_pointwise/BatchNorm/batchnorm_1/add_1/conv","op":"Conv2D","input":["MobilenetV1/Conv2d_8_depthwise/Relu6","MobilenetV1/Conv2d_8_pointwise/weights"],"attr":{"dilations":{"list":{"i":["1","1","1","1"]}},"T":{"type":"DT_FLOAT"},"data_format":{"s":"TkhXQw=="},"strides":{"list":{"i":["1","1","1","1"]}},"explicit_paddings":{"list":{}},"use_cudnn_on_gpu":{"b":true},"padding":{"s":"U0FNRQ=="}}},{"name":"MobilenetV1/Conv2d_8_pointwise/BatchNorm/batchnorm_1/add_1","op":"BiasAdd","input":["MobilenetV1/Conv2d_8_pointwise/BatchNorm/batchnorm_1/add_1/conv","MobilenetV1/Conv2d_8_pointwise/Conv2D_bias"],"attr":{"T":{"type":"DT_FLOAT"},"data_format":{"s":"TkhXQw=="}}},{"name":"MobilenetV1/Conv2d_8_pointwise/Relu6","op":"Relu6","input":["MobilenetV1/Conv2d_8_pointwise/BatchNorm/batchnorm_1/add_1"],"attr":{"T":{"type":"DT_FLOAT"}}},{"name":"MobilenetV1/Conv2d_9_depthwise/BatchNorm/batchnorm_1/add_1/conv","op":"DepthwiseConv2dNative","input":["MobilenetV1/Conv2d_8_pointwise/Relu6","MobilenetV1/Conv2d_9_depthwise/depthwise_weights"],"attr":{"padding":{"s":"U0FNRQ=="},"dilations":{"list":{"i":["2","2","1","1"]}},"T":{"type":"DT_FLOAT"},"data_format":{"s":"TkhXQw=="},"strides":{"list":{"i":["1","1","1","1"]}}}},{"name":"MobilenetV1/Conv2d_9_depthwise/BatchNorm/batchnorm_1/add_1","op":"BiasAdd","input":["MobilenetV1/Conv2d_9_depthwise/BatchNorm/batchnorm_1/add_1/conv","MobilenetV1/Conv2d_9_depthwise/depthwise_bias"],"attr":{"T":{"type":"DT_FLOAT"},"data_format":{"s":"TkhXQw=="}}},{"name":"MobilenetV1/Conv2d_9_depthwise/Relu6","op":"Relu6","input":["MobilenetV1/Conv2d_9_depthwise/BatchNorm/batchnorm_1/add_1"],"attr":{"T":{"type":"DT_FLOAT"}}},{"name":"MobilenetV1/Conv2d_9_pointwise/BatchNorm/batchnorm_1/add_1/conv","op":"Conv2D","input":["MobilenetV1/Conv2d_9_depthwise/Relu6","MobilenetV1/Conv2d_9_pointwise/weights"],"attr":{"padding":{"s":"U0FNRQ=="},"dilations":{"list":{"i":["1","1","1","1"]}},"T":{"type":"DT_FLOAT"},"data_format":{"s":"TkhXQw=="},"strides":{"list":{"i":["1","1","1","1"]}},"use_cudnn_on_gpu":{"b":true},"explicit_paddings":{"list":{}}}},{"name":"MobilenetV1/Conv2d_9_pointwise/BatchNorm/batchnorm_1/add_1","op":"BiasAdd","input":["MobilenetV1/Conv2d_9_pointwise/BatchNorm/batchnorm_1/add_1/conv","MobilenetV1/Conv2d_9_pointwise/Conv2D_bias"],"attr":{"T":{"type":"DT_FLOAT"},"data_format":{"s":"TkhXQw=="}}},{"name":"MobilenetV1/Conv2d_9_pointwise/Relu6","op":"Relu6","input":["MobilenetV1/Conv2d_9_pointwise/BatchNorm/batchnorm_1/add_1"],"attr":{"T":{"type":"DT_FLOAT"}}},{"name":"MobilenetV1/Conv2d_10_depthwise/BatchNorm/batchnorm_1/add_1/conv","op":"DepthwiseConv2dNative","input":["MobilenetV1/Conv2d_9_pointwise/Relu6","MobilenetV1/Conv2d_10_depthwise/depthwise_weights"],"attr":{"strides":{"list":{"i":["1","1","1","1"]}},"data_format":{"s":"TkhXQw=="},"dilations":{"list":{"i":["2","2","1","1"]}},"padding":{"s":"U0FNRQ=="},"T":{"type":"DT_FLOAT"}}},{"name":"MobilenetV1/Conv2d_10_depthwise/BatchNorm/batchnorm_1/add_1","op":"BiasAdd","input":["MobilenetV1/Conv2d_10_depthwise/BatchNorm/batchnorm_1/add_1/conv","MobilenetV1/Conv2d_10_depthwise/depthwise_bias"],"attr":{"T":{"type":"DT_FLOAT"},"data_format":{"s":"TkhXQw=="}}},{"name":"MobilenetV1/Conv2d_10_depthwise/Relu6","op":"Relu6","input":["MobilenetV1/Conv2d_10_depthwise/BatchNorm/batchnorm_1/add_1"],"attr":{"T":{"type":"DT_FLOAT"}}},{"name":"MobilenetV1/Conv2d_10_pointwise/BatchNorm/batchnorm_1/add_1/conv","op":"Conv2D","input":["MobilenetV1/Conv2d_10_depthwise/Relu6","MobilenetV1/Conv2d_10_pointwise/weights"],"attr":{"padding":{"s":"U0FNRQ=="},"dilations":{"list":{"i":["1","1","1","1"]}},"T":{"type":"DT_FLOAT"},"strides":{"list":{"i":["1","1","1","1"]}},"data_format":{"s":"TkhXQw=="},"use_cudnn_on_gpu":{"b":true},"explicit_paddings":{"list":{}}}},{"name":"MobilenetV1/Conv2d_10_pointwise/BatchNorm/batchnorm_1/add_1","op":"BiasAdd","input":["MobilenetV1/Conv2d_10_pointwise/BatchNorm/batchnorm_1/add_1/conv","MobilenetV1/Conv2d_10_pointwise/Conv2D_bias"],"attr":{"data_format":{"s":"TkhXQw=="},"T":{"type":"DT_FLOAT"}}},{"name":"MobilenetV1/Conv2d_10_pointwise/Relu6","op":"Relu6","input":["MobilenetV1/Conv2d_10_pointwise/BatchNorm/batchnorm_1/add_1"],"attr":{"T":{"type":"DT_FLOAT"}}},{"name":"MobilenetV1/Conv2d_11_depthwise/BatchNorm/batchnorm_1/add_1/conv","op":"DepthwiseConv2dNative","input":["MobilenetV1/Conv2d_10_pointwise/Relu6","MobilenetV1/Conv2d_11_depthwise/depthwise_weights"],"attr":{"strides":{"list":{"i":["1","1","1","1"]}},"data_format":{"s":"TkhXQw=="},"padding":{"s":"U0FNRQ=="},"dilations":{"list":{"i":["2","2","1","1"]}},"T":{"type":"DT_FLOAT"}}},{"name":"MobilenetV1/Conv2d_11_depthwise/BatchNorm/batchnorm_1/add_1","op":"BiasAdd","input":["MobilenetV1/Conv2d_11_depthwise/BatchNorm/batchnorm_1/add_1/conv","MobilenetV1/Conv2d_11_depthwise/depthwise_bias"],"attr":{"data_format":{"s":"TkhXQw=="},"T":{"type":"DT_FLOAT"}}},{"name":"MobilenetV1/Conv2d_11_depthwise/Relu6","op":"Relu6","input":["MobilenetV1/Conv2d_11_depthwise/BatchNorm/batchnorm_1/add_1"],"attr":{"T":{"type":"DT_FLOAT"}}},{"name":"MobilenetV1/Conv2d_11_pointwise/BatchNorm/batchnorm_1/add_1/conv","op":"Conv2D","input":["MobilenetV1/Conv2d_11_depthwise/Relu6","MobilenetV1/Conv2d_11_pointwise/weights"],"attr":{"dilations":{"list":{"i":["1","1","1","1"]}},"T":{"type":"DT_FLOAT"},"data_format":{"s":"TkhXQw=="},"strides":{"list":{"i":["1","1","1","1"]}},"use_cudnn_on_gpu":{"b":true},"explicit_paddings":{"list":{}},"padding":{"s":"U0FNRQ=="}}},{"name":"MobilenetV1/Conv2d_11_pointwise/BatchNorm/batchnorm_1/add_1","op":"BiasAdd","input":["MobilenetV1/Conv2d_11_pointwise/BatchNorm/batchnorm_1/add_1/conv","MobilenetV1/Conv2d_11_pointwise/Conv2D_bias"],"attr":{"T":{"type":"DT_FLOAT"},"data_format":{"s":"TkhXQw=="}}},{"name":"MobilenetV1/Conv2d_11_pointwise/Relu6","op":"Relu6","input":["MobilenetV1/Conv2d_11_pointwise/BatchNorm/batchnorm_1/add_1"],"attr":{"T":{"type":"DT_FLOAT"}}},{"name":"MobilenetV1/Conv2d_12_depthwise/BatchNorm/batchnorm_1/add_1/conv","op":"DepthwiseConv2dNative","input":["MobilenetV1/Conv2d_11_pointwise/Relu6","MobilenetV1/Conv2d_12_depthwise/depthwise_weights"],"attr":{"dilations":{"list":{"i":["2","2","1","1"]}},"padding":{"s":"U0FNRQ=="},"T":{"type":"DT_FLOAT"},"strides":{"list":{"i":["1","1","1","1"]}},"data_format":{"s":"TkhXQw=="}}},{"name":"MobilenetV1/Conv2d_12_depthwise/BatchNorm/batchnorm_1/add_1","op":"BiasAdd","input":["MobilenetV1/Conv2d_12_depthwise/BatchNorm/batchnorm_1/add_1/conv","MobilenetV1/Conv2d_12_depthwise/depthwise_bias"],"attr":{"T":{"type":"DT_FLOAT"},"data_format":{"s":"TkhXQw=="}}},{"name":"MobilenetV1/Conv2d_12_depthwise/Relu6","op":"Relu6","input":["MobilenetV1/Conv2d_12_depthwise/BatchNorm/batchnorm_1/add_1"],"attr":{"T":{"type":"DT_FLOAT"}}},{"name":"MobilenetV1/Conv2d_12_pointwise/BatchNorm/batchnorm_1/add_1/conv","op":"Conv2D","input":["MobilenetV1/Conv2d_12_depthwise/Relu6","MobilenetV1/Conv2d_12_pointwise/weights"],"attr":{"dilations":{"list":{"i":["1","1","1","1"]}},"T":{"type":"DT_FLOAT"},"strides":{"list":{"i":["1","1","1","1"]}},"data_format":{"s":"TkhXQw=="},"use_cudnn_on_gpu":{"b":true},"explicit_paddings":{"list":{}},"padding":{"s":"U0FNRQ=="}}},{"name":"MobilenetV1/Conv2d_12_pointwise/BatchNorm/batchnorm_1/add_1","op":"BiasAdd","input":["MobilenetV1/Conv2d_12_pointwise/BatchNorm/batchnorm_1/add_1/conv","MobilenetV1/Conv2d_12_pointwise/Conv2D_bias"],"attr":{"T":{"type":"DT_FLOAT"},"data_format":{"s":"TkhXQw=="}}},{"name":"MobilenetV1/Conv2d_12_pointwise/Relu6","op":"Relu6","input":["MobilenetV1/Conv2d_12_pointwise/BatchNorm/batchnorm_1/add_1"],"attr":{"T":{"type":"DT_FLOAT"}}},{"name":"MobilenetV1/Conv2d_13_depthwise/BatchNorm/batchnorm_1/add_1/conv","op":"DepthwiseConv2dNative","input":["MobilenetV1/Conv2d_12_pointwise/Relu6","MobilenetV1/Conv2d_13_depthwise/depthwise_weights"],"attr":{"dilations":{"list":{"i":["2","2","1","1"]}},"padding":{"s":"U0FNRQ=="},"T":{"type":"DT_FLOAT"},"data_format":{"s":"TkhXQw=="},"strides":{"list":{"i":["1","1","1","1"]}}}},{"name":"MobilenetV1/Conv2d_13_depthwise/BatchNorm/batchnorm_1/add_1","op":"BiasAdd","input":["MobilenetV1/Conv2d_13_depthwise/BatchNorm/batchnorm_1/add_1/conv","MobilenetV1/Conv2d_13_depthwise/depthwise_bias"],"attr":{"data_format":{"s":"TkhXQw=="},"T":{"type":"DT_FLOAT"}}},{"name":"MobilenetV1/Conv2d_13_depthwise/Relu6","op":"Relu6","input":["MobilenetV1/Conv2d_13_depthwise/BatchNorm/batchnorm_1/add_1"],"attr":{"T":{"type":"DT_FLOAT"}}},{"name":"MobilenetV1/Conv2d_13_pointwise/BatchNorm/batchnorm_1/add_1/conv","op":"Conv2D","input":["MobilenetV1/Conv2d_13_depthwise/Relu6","MobilenetV1/Conv2d_13_pointwise/weights"],"attr":{"dilations":{"list":{"i":["1","1","1","1"]}},"T":{"type":"DT_FLOAT"},"strides":{"list":{"i":["1","1","1","1"]}},"data_format":{"s":"TkhXQw=="},"use_cudnn_on_gpu":{"b":true},"explicit_paddings":{"list":{}},"padding":{"s":"U0FNRQ=="}}},{"name":"MobilenetV1/Conv2d_13_pointwise/BatchNorm/batchnorm_1/add_1","op":"BiasAdd","input":["MobilenetV1/Conv2d_13_pointwise/BatchNorm/batchnorm_1/add_1/conv","MobilenetV1/Conv2d_13_pointwise/Conv2D_bias"],"attr":{"T":{"type":"DT_FLOAT"},"data_format":{"s":"TkhXQw=="}}},{"name":"MobilenetV1/Conv2d_13_pointwise/Relu6","op":"Relu6","input":["MobilenetV1/Conv2d_13_pointwise/BatchNorm/batchnorm_1/add_1"],"attr":{"T":{"type":"DT_FLOAT"}}},{"name":"float_short_offsets/conv","op":"Conv2D","input":["MobilenetV1/Conv2d_13_pointwise/Relu6","MobilenetV1/offset_2/weights"],"attr":{"dilations":{"list":{"i":["1","1","1","1"]}},"T":{"type":"DT_FLOAT"},"strides":{"list":{"i":["1","1","1","1"]}},"data_format":{"s":"TkhXQw=="},"use_cudnn_on_gpu":{"b":true},"explicit_paddings":{"list":{}},"padding":{"s":"U0FNRQ=="}}},{"name":"float_segments/conv","op":"Conv2D","input":["MobilenetV1/Conv2d_13_pointwise/Relu6","MobilenetV1/segment_2/weights"],"attr":{"T":{"type":"DT_FLOAT"},"strides":{"list":{"i":["1","1","1","1"]}},"data_format":{"s":"TkhXQw=="},"use_cudnn_on_gpu":{"b":true},"explicit_paddings":{"list":{}},"padding":{"s":"U0FNRQ=="},"dilations":{"list":{"i":["1","1","1","1"]}}}},{"name":"add_1/conv","op":"Conv2D","input":["MobilenetV1/Conv2d_13_pointwise/Relu6","MobilenetV1/part_offset_2/weights"],"attr":{"strides":{"list":{"i":["1","1","1","1"]}},"data_format":{"s":"TkhXQw=="},"explicit_paddings":{"list":{}},"use_cudnn_on_gpu":{"b":true},"padding":{"s":"U0FNRQ=="},"dilations":{"list":{"i":["1","1","1","1"]}},"T":{"type":"DT_FLOAT"}}},{"name":"float_part_heatmaps/conv","op":"Conv2D","input":["MobilenetV1/Conv2d_13_pointwise/Relu6","MobilenetV1/part_heatmap_2/weights"],"attr":{"T":{"type":"DT_FLOAT"},"strides":{"list":{"i":["1","1","1","1"]}},"data_format":{"s":"TkhXQw=="},"explicit_paddings":{"list":{}},"use_cudnn_on_gpu":{"b":true},"padding":{"s":"U0FNRQ=="},"dilations":{"list":{"i":["1","1","1","1"]}}}},{"name":"float_long_offsets/conv","op":"Conv2D","input":["MobilenetV1/Conv2d_13_pointwise/Relu6","MobilenetV1/embedding_2/weights"],"attr":{"dilations":{"list":{"i":["1","1","1","1"]}},"T":{"type":"DT_FLOAT"},"data_format":{"s":"TkhXQw=="},"strides":{"list":{"i":["1","1","1","1"]}},"explicit_paddings":{"list":{}},"use_cudnn_on_gpu":{"b":true},"padding":{"s":"U0FNRQ=="}}},{"name":"float_heatmaps/conv","op":"Conv2D","input":["MobilenetV1/Conv2d_13_pointwise/Relu6","MobilenetV1/heatmap_2/weights"],"attr":{"strides":{"list":{"i":["1","1","1","1"]}},"data_format":{"s":"TkhXQw=="},"use_cudnn_on_gpu":{"b":true},"explicit_paddings":{"list":{}},"padding":{"s":"U0FNRQ=="},"dilations":{"list":{"i":["1","1","1","1"]}},"T":{"type":"DT_FLOAT"}}},{"name":"MobilenetV1/displacement_fwd_2/BiasAdd/conv","op":"Conv2D","input":["MobilenetV1/Conv2d_13_pointwise/Relu6","MobilenetV1/displacement_fwd_2/weights"],"attr":{"dilations":{"list":{"i":["1","1","1","1"]}},"T":{"type":"DT_FLOAT"},"strides":{"list":{"i":["1","1","1","1"]}},"data_format":{"s":"TkhXQw=="},"use_cudnn_on_gpu":{"b":true},"explicit_paddings":{"list":{}},"padding":{"s":"U0FNRQ=="}}},{"name":"MobilenetV1/displacement_bwd_2/BiasAdd/conv","op":"Conv2D","input":["MobilenetV1/Conv2d_13_pointwise/Relu6","MobilenetV1/displacement_bwd_2/weights"],"attr":{"dilations":{"list":{"i":["1","1","1","1"]}},"T":{"type":"DT_FLOAT"},"strides":{"list":{"i":["1","1","1","1"]}},"data_format":{"s":"TkhXQw=="},"use_cudnn_on_gpu":{"b":true},"explicit_paddings":{"list":{}},"padding":{"s":"U0FNRQ=="}}},{"name":"float_short_offsets","op":"BiasAdd","input":["float_short_offsets/conv","MobilenetV1/offset_2/Conv2D_bias"],"attr":{"data_format":{"s":"TkhXQw=="},"T":{"type":"DT_FLOAT"}}},{"name":"float_segments","op":"BiasAdd","input":["float_segments/conv","MobilenetV1/segment_2/Conv2D_bias"],"attr":{"data_format":{"s":"TkhXQw=="},"T":{"type":"DT_FLOAT"}}},{"name":"add_1","op":"BiasAdd","input":["add_1/conv","MobilenetV1/part_offset_2/Conv2D_bias"],"attr":{"T":{"type":"DT_FLOAT"},"data_format":{"s":"TkhXQw=="}}},{"name":"float_part_heatmaps","op":"BiasAdd","input":["float_part_heatmaps/conv","MobilenetV1/part_heatmap_2/Conv2D_bias"],"attr":{"T":{"type":"DT_FLOAT"},"data_format":{"s":"TkhXQw=="}}},{"name":"float_long_offsets","op":"BiasAdd","input":["float_long_offsets/conv","MobilenetV1/embedding_2/Conv2D_bias"],"attr":{"data_format":{"s":"TkhXQw=="},"T":{"type":"DT_FLOAT"}}},{"name":"float_heatmaps","op":"BiasAdd","input":["float_heatmaps/conv","MobilenetV1/heatmap_2/Conv2D_bias"],"attr":{"T":{"type":"DT_FLOAT"},"data_format":{"s":"TkhXQw=="}}},{"name":"MobilenetV1/displacement_fwd_2/BiasAdd","op":"BiasAdd","input":["MobilenetV1/displacement_fwd_2/BiasAdd/conv","MobilenetV1/displacement_fwd_2/Conv2D_bias"],"attr":{"data_format":{"s":"TkhXQw=="},"T":{"type":"DT_FLOAT"}}},{"name":"MobilenetV1/displacement_bwd_2/BiasAdd","op":"BiasAdd","input":["MobilenetV1/displacement_bwd_2/BiasAdd/conv","MobilenetV1/displacement_bwd_2/Conv2D_bias"],"attr":{"T":{"type":"DT_FLOAT"},"data_format":{"s":"TkhXQw=="}}},{"name":"clip_by_value/Minimum","op":"Minimum","input":["add_1","clip_by_value/Minimum/y"],"attr":{"T":{"type":"DT_FLOAT"}}},{"name":"float_part_offsets","op":"Maximum","input":["clip_by_value/Minimum","clip_by_value/y"],"attr":{"T":{"type":"DT_FLOAT"}}}],"library":{},"versions":{"producer":38}},"weightsManifest":[{"paths":["group1-shard1of1.bin"],"weights":[{"name":"MobilenetV1/offset_2/Conv2D_bias","shape":[34],"dtype":"float32","quantization":{"min":-0.0725925709833117,"scale":0.0005076403565266553,"dtype":"uint8"}},{"name":"MobilenetV1/offset_2/weights","shape":[1,1,256,34],"dtype":"float32","quantization":{"min":-0.9877515694674324,"scale":0.007656988910600251,"dtype":"uint8"}},{"name":"MobilenetV1/Conv2d_13_pointwise/Conv2D_bias","shape":[256],"dtype":"float32","quantization":{"min":-2.4888639281777776,"scale":0.03072671516268861,"dtype":"uint8"}},{"name":"MobilenetV1/Conv2d_13_pointwise/weights","shape":[1,1,256,256],"dtype":"float32","quantization":{"min":-1.9245828348047591,"scale":0.015520829312941607,"dtype":"uint8"}},{"name":"MobilenetV1/Conv2d_13_depthwise/depthwise_bias","shape":[256],"dtype":"float32","quantization":{"min":-2.058755034091426,"scale":0.017014504413978726,"dtype":"uint8"}},{"name":"MobilenetV1/Conv2d_13_depthwise/depthwise_weights","shape":[3,3,256,1],"dtype":"float32","quantization":{"min":-2.000424912396599,"scale":0.02083775950413124,"dtype":"uint8"}},{"name":"MobilenetV1/Conv2d_12_pointwise/Conv2D_bias","shape":[256],"dtype":"float32","quantization":{"min":-1.0783994899076574,"scale":0.009803631726433249,"dtype":"uint8"}},{"name":"MobilenetV1/Conv2d_12_pointwise/weights","shape":[1,1,256,256],"dtype":"float32","quantization":{"min":-0.804142954302769,"scale":0.005785201110091864,"dtype":"uint8"}},{"name":"MobilenetV1/Conv2d_12_depthwise/depthwise_bias","shape":[256],"dtype":"float32","quantization":{"min":-3.507661454817828,"scale":0.030768960129980948,"dtype":"uint8"}},{"name":"MobilenetV1/Conv2d_12_depthwise/depthwise_weights","shape":[3,3,256,1],"dtype":"float32","quantization":{"min":-3.3760532912086036,"scale":0.030414894515392827,"dtype":"uint8"}},{"name":"MobilenetV1/Conv2d_11_pointwise/Conv2D_bias","shape":[256],"dtype":"float32","quantization":{"min":-8.68484384873334,"scale":0.08684843848733341,"dtype":"uint8"}},{"name":"MobilenetV1/Conv2d_11_pointwise/weights","shape":[1,1,256,256],"dtype":"float32","quantization":{"min":-1.1777370046166813,"scale":0.01006612824458702,"dtype":"uint8"}},{"name":"MobilenetV1/Conv2d_11_depthwise/depthwise_bias","shape":[256],"dtype":"float32","quantization":{"min":-8.717810776654412,"scale":0.06918897441789215,"dtype":"uint8"}},{"name":"MobilenetV1/Conv2d_11_depthwise/depthwise_weights","shape":[3,3,256,1],"dtype":"float32","quantization":{"min":-1.9271912051182167,"scale":0.015796649222280464,"dtype":"uint8"}},{"name":"MobilenetV1/Conv2d_10_pointwise/Conv2D_bias","shape":[256],"dtype":"float32","quantization":{"min":-10.368216548246497,"scale":0.09094926796707453,"dtype":"uint8"}},{"name":"MobilenetV1/Conv2d_10_pointwise/weights","shape":[1,1,256,256],"dtype":"float32","quantization":{"min":-1.4209737403720033,"scale":0.012917943094290939,"dtype":"uint8"}},{"name":"MobilenetV1/Conv2d_10_depthwise/depthwise_bias","shape":[256],"dtype":"float32","quantization":{"min":-13.129602993235869,"scale":0.08871353373808019,"dtype":"uint8"}},{"name":"MobilenetV1/Conv2d_10_depthwise/depthwise_weights","shape":[3,3,256,1],"dtype":"float32","quantization":{"min":-2.2630471622242645,"scale":0.017144296683517156,"dtype":"uint8"}},{"name":"MobilenetV1/Conv2d_9_pointwise/Conv2D_bias","shape":[256],"dtype":"float32","quantization":{"min":-8.189599362541648,"scale":0.06999657574821921,"dtype":"uint8"}},{"name":"MobilenetV1/Conv2d_9_pointwise/weights","shape":[1,1,256,256],"dtype":"float32","quantization":{"min":-1.6790210541556865,"scale":0.013650577676062491,"dtype":"uint8"}},{"name":"MobilenetV1/Conv2d_9_depthwise/depthwise_bias","shape":[256],"dtype":"float32","quantization":{"min":-14.355823337330538,"scale":0.10875623740401923,"dtype":"uint8"}},{"name":"MobilenetV1/Conv2d_9_depthwise/depthwise_weights","shape":[3,3,256,1],"dtype":"float32","quantization":{"min":-2.636688223072127,"scale":0.020282217100554823,"dtype":"uint8"}},{"name":"MobilenetV1/Conv2d_8_pointwise/Conv2D_bias","shape":[256],"dtype":"float32","quantization":{"min":-6.573062223546645,"scale":0.056180019004672184,"dtype":"uint8"}},{"name":"MobilenetV1/Conv2d_8_pointwise/weights","shape":[1,1,256,256],"dtype":"float32","quantization":{"min":-1.016724048876295,"scale":0.009327743567672431,"dtype":"uint8"}},{"name":"MobilenetV1/Conv2d_8_depthwise/depthwise_bias","shape":[256],"dtype":"float32","quantization":{"min":-10.310239079419304,"scale":0.06919623543234432,"dtype":"uint8"}},{"name":"MobilenetV1/Conv2d_8_depthwise/depthwise_weights","shape":[3,3,256,1],"dtype":"float32","quantization":{"min":-4.422263470818015,"scale":0.03454893336576574,"dtype":"uint8"}},{"name":"MobilenetV1/Conv2d_7_pointwise/Conv2D_bias","shape":[256],"dtype":"float32","quantization":{"min":-4.706133449778837,"scale":0.039217778748156976,"dtype":"uint8"}},{"name":"MobilenetV1/Conv2d_7_pointwise/weights","shape":[1,1,256,256],"dtype":"float32","quantization":{"min":-0.88174174229304,"scale":0.006942848364512126,"dtype":"uint8"}},{"name":"MobilenetV1/Conv2d_7_depthwise/depthwise_bias","shape":[256],"dtype":"float32","quantization":{"min":-4.905411570679908,"scale":0.044594650642544614,"dtype":"uint8"}},{"name":"MobilenetV1/Conv2d_7_depthwise/depthwise_weights","shape":[3,3,256,1],"dtype":"float32","quantization":{"min":-2.9071772715624644,"scale":0.02289115961860208,"dtype":"uint8"}},{"name":"MobilenetV1/Conv2d_6_pointwise/Conv2D_bias","shape":[256],"dtype":"float32","quantization":{"min":-19.830630283729704,"scale":0.21555032917097502,"dtype":"uint8"}},{"name":"MobilenetV1/Conv2d_6_pointwise/weights","shape":[1,1,128,256],"dtype":"float32","quantization":{"min":-3.4881492708243576,"scale":0.026627093670414943,"dtype":"uint8"}},{"name":"MobilenetV1/Conv2d_6_depthwise/depthwise_bias","shape":[128],"dtype":"float32","quantization":{"min":-1.110455737394445,"scale":0.04626898905810188,"dtype":"uint8"}},{"name":"MobilenetV1/Conv2d_6_depthwise/depthwise_weights","shape":[3,3,128,1],"dtype":"float32","quantization":{"min":-1.300976304914437,"scale":0.012158657055275112,"dtype":"uint8"}},{"name":"MobilenetV1/Conv2d_5_pointwise/Conv2D_bias","shape":[128],"dtype":"float32","quantization":{"min":-22.069413368374693,"scale":0.132948273303462,"dtype":"uint8"}},{"name":"MobilenetV1/Conv2d_5_pointwise/weights","shape":[1,1,128,128],"dtype":"float32","quantization":{"min":-3.519590301139682,"scale":0.023621411417044845,"dtype":"uint8"}},{"name":"MobilenetV1/Conv2d_5_depthwise/depthwise_bias","shape":[128],"dtype":"float32","quantization":{"min":-8.100319062027276,"scale":0.09101482092165479,"dtype":"uint8"}},{"name":"MobilenetV1/Conv2d_5_depthwise/depthwise_weights","shape":[3,3,128,1],"dtype":"float32","quantization":{"min":-5.020712272793639,"scale":0.03664753483790977,"dtype":"uint8"}},{"name":"MobilenetV1/Conv2d_4_pointwise/Conv2D_bias","shape":[128],"dtype":"float32","quantization":{"min":-11.66195063684501,"scale":0.07427994036207013,"dtype":"uint8"}},{"name":"MobilenetV1/Conv2d_4_pointwise/weights","shape":[1,1,64,128],"dtype":"float32","quantization":{"min":-2.617909277186674,"scale":0.0240175163044649,"dtype":"uint8"}},{"name":"MobilenetV1/Conv2d_4_depthwise/depthwise_bias","shape":[64],"dtype":"float32","quantization":{"min":-5.660846756953819,"scale":0.04922475440829408,"dtype":"uint8"}},{"name":"MobilenetV1/Conv2d_4_depthwise/depthwise_weights","shape":[3,3,64,1],"dtype":"float32","quantization":{"min":-1.78188759579378,"scale":0.013297668625326718,"dtype":"uint8"}},{"name":"MobilenetV1/Conv2d_3_pointwise/Conv2D_bias","shape":[64],"dtype":"float32","quantization":{"min":-54.124498711380305,"scale":0.33617701062969135,"dtype":"uint8"}},{"name":"MobilenetV1/Conv2d_3_pointwise/weights","shape":[1,1,64,64],"dtype":"float32","quantization":{"min":-3.3357317961898505,"scale":0.04765331137414072,"dtype":"uint8"}},{"name":"MobilenetV1/Conv2d_3_depthwise/depthwise_bias","shape":[64],"dtype":"float32","quantization":{"min":-3.205650198693369,"scale":0.16871843151017732,"dtype":"uint8"}},{"name":"MobilenetV1/Conv2d_3_depthwise/depthwise_weights","shape":[3,3,64,1],"dtype":"float32","quantization":{"min":-17.422900629978557,"scale":0.21778625787473194,"dtype":"uint8"}},{"name":"MobilenetV1/Conv2d_2_pointwise/Conv2D_bias","shape":[64],"dtype":"float32","quantization":{"min":-24.874222729252836,"scale":0.23466247857785694,"dtype":"uint8"}},{"name":"MobilenetV1/Conv2d_2_pointwise/weights","shape":[1,1,32,64],"dtype":"float32","quantization":{"min":-8.151114430147059,"scale":0.056604961320465684,"dtype":"uint8"}},{"name":"MobilenetV1/Conv2d_2_depthwise/depthwise_bias","shape":[32],"dtype":"float32","quantization":{"min":-1.4740714746363022,"scale":0.040946429851008395,"dtype":"uint8"}},{"name":"MobilenetV1/Conv2d_2_depthwise/depthwise_weights","shape":[3,3,32,1],"dtype":"float32","quantization":{"min":-2.087183853224212,"scale":0.015575998904658299,"dtype":"uint8"}},{"name":"MobilenetV1/Conv2d_1_pointwise/Conv2D_bias","shape":[32],"dtype":"float32","quantization":{"min":-18.458988548727596,"scale":0.15007307763193167,"dtype":"uint8"}},{"name":"MobilenetV1/Conv2d_1_pointwise/weights","shape":[1,1,16,32],"dtype":"float32","quantization":{"min":-4.263362398334578,"scale":0.0463408956340715,"dtype":"uint8"}},{"name":"MobilenetV1/Conv2d_1_depthwise/depthwise_bias","shape":[16],"dtype":"float32","quantization":{"min":-0.9761113419252283,"scale":0.027888895483577952,"dtype":"uint8"}},{"name":"MobilenetV1/Conv2d_1_depthwise/depthwise_weights","shape":[3,3,16,1],"dtype":"float32","quantization":{"min":-47.91769454058478,"scale":0.43561540491440714,"dtype":"uint8"}},{"name":"MobilenetV1/Conv2d_0/Conv2D_bias","shape":[16],"dtype":"float32","quantization":{"min":-3.6811144697899914,"scale":0.029686407014435413,"dtype":"uint8"}},{"name":"MobilenetV1/Conv2d_0/weights","shape":[3,3,3,16],"dtype":"float32","quantization":{"min":-2.93646733714085,"scale":0.029963952419804592,"dtype":"uint8"}},{"name":"MobilenetV1/segment_2/Conv2D_bias","shape":[1],"dtype":"float32","quantization":{"min":-0.2251821905374527,"scale":1,"dtype":"uint8"}},{"name":"MobilenetV1/segment_2/weights","shape":[1,1,256,1],"dtype":"float32","quantization":{"min":-0.5489894334007712,"scale":0.004537102755378274,"dtype":"uint8"}},{"name":"clip_by_value/y","shape":[],"dtype":"float32","quantization":{"min":0,"scale":1,"dtype":"uint8"}},{"name":"clip_by_value/Minimum/y","shape":[],"dtype":"float32","quantization":{"min":1,"scale":1,"dtype":"uint8"}},{"name":"MobilenetV1/part_offset_2/Conv2D_bias","shape":[48],"dtype":"float32","quantization":{"min":0.4774061441421509,"scale":0.00013031725789986405,"dtype":"uint8"}},{"name":"MobilenetV1/part_offset_2/weights","shape":[1,1,256,48],"dtype":"float32","quantization":{"min":-0.16788975684081808,"scale":0.0013014709832621556,"dtype":"uint8"}},{"name":"MobilenetV1/part_heatmap_2/Conv2D_bias","shape":[24],"dtype":"float32","quantization":{"min":-0.021817809445600883,"scale":0.0004363561889120177,"dtype":"uint8"}},{"name":"MobilenetV1/part_heatmap_2/weights","shape":[1,1,256,24],"dtype":"float32","quantization":{"min":-0.31370588611153993,"scale":0.0024897292548534916,"dtype":"uint8"}},{"name":"MobilenetV1/embedding_2/Conv2D_bias","shape":[34],"dtype":"float32","quantization":{"min":-0.1510618237888112,"scale":0.0011026410495533663,"dtype":"uint8"}},{"name":"MobilenetV1/embedding_2/weights","shape":[1,1,256,34],"dtype":"float32","quantization":{"min":-0.6371015777774885,"scale":0.005222144080143349,"dtype":"uint8"}},{"name":"MobilenetV1/heatmap_2/Conv2D_bias","shape":[17],"dtype":"float32","quantization":{"min":-0.36061960458755493,"scale":0.0003684147900226069,"dtype":"uint8"}},{"name":"MobilenetV1/heatmap_2/weights","shape":[1,1,256,17],"dtype":"float32","quantization":{"min":-0.30908831404704673,"scale":0.00204694247713276,"dtype":"uint8"}},{"name":"MobilenetV1/displacement_fwd_2/Conv2D_bias","shape":[32],"dtype":"float32","quantization":{"min":-0.044496089658316446,"scale":0.0010594307061503915,"dtype":"uint8"}},{"name":"MobilenetV1/displacement_fwd_2/weights","shape":[1,1,256,32],"dtype":"float32","quantization":{"min":-0.43647582624472825,"scale":0.0043647582624472825,"dtype":"uint8"}},{"name":"MobilenetV1/displacement_bwd_2/Conv2D_bias","shape":[32],"dtype":"float32","quantization":{"min":-0.3187222957611084,"scale":0.0015623641949073942,"dtype":"uint8"}},{"name":"MobilenetV1/displacement_bwd_2/weights","shape":[1,1,256,32],"dtype":"float32","quantization":{"min":-0.574294582418367,"scale":0.0038543260564991074,"dtype":"uint8"}}]}]}