{"format":"graph-model","generatedBy":"1.15.0-dev20190802","convertedBy":"TensorFlow.js Converter v1.2.6","modelTopology":{"node":[{"name":"sub_2","op":"Placeholder","attr":{"shape":{"shape":{"dim":[{"size":"1"},{"size":"-1"},{"size":"-1"},{"size":"3"}]}},"dtype":{"type":"DT_FLOAT"}}},{"name":"resnet_v1_50/Pad/paddings","op":"Const","attr":{"value":{"tensor":{"dtype":"DT_INT32","tensorShape":{"dim":[{"size":"4"},{"size":"2"}]}}},"dtype":{"type":"DT_INT32"}}},{"name":"resnet_v1_50/conv1/weights","op":"Const","attr":{"value":{"tensor":{"dtype":"DT_FLOAT","tensorShape":{"dim":[{"size":"7"},{"size":"7"},{"size":"3"},{"size":"64"}]}}},"dtype":{"type":"DT_FLOAT"}}},{"name":"resnet_v1_50/conv1/Conv2D_bias","op":"Const","attr":{"value":{"tensor":{"dtype":"DT_FLOAT","tensorShape":{"dim":[{"size":"64"}]}}},"dtype":{"type":"DT_FLOAT"}}},{"name":"resnet_v1_50/Pad_1/paddings","op":"Const","attr":{"value":{"tensor":{"dtype":"DT_INT32","tensorShape":{"dim":[{"size":"4"},{"size":"2"}]}}},"dtype":{"type":"DT_INT32"}}},{"name":"resnet_v1_50/block1/unit_1/bottleneck_v1/shortcut/weights","op":"Const","attr":{"value":{"tensor":{"dtype":"DT_FLOAT","tensorShape":{"dim":[{"size":"1"},{"size":"1"},{"size":"64"},{"size":"256"}]}}},"dtype":{"type":"DT_FLOAT"}}},{"name":"resnet_v1_50/block1/unit_1/bottleneck_v1/shortcut/Conv2D_bias","op":"Const","attr":{"value":{"tensor":{"dtype":"DT_FLOAT","tensorShape":{"dim":[{"size":"256"}]}}},"dtype":{"type":"DT_FLOAT"}}},{"name":"resnet_v1_50/block1/unit_1/bottleneck_v1/conv1/weights","op":"Const","attr":{"value":{"tensor":{"dtype":"DT_FLOAT","tensorShape":{"dim":[{"size":"1"},{"size":"1"},{"size":"64"},{"size":"64"}]}}},"dtype":{"type":"DT_FLOAT"}}},{"name":"resnet_v1_50/block1/unit_1/bottleneck_v1/conv1/Conv2D_bias","op":"Const","attr":{"value":{"tensor":{"dtype":"DT_FLOAT","tensorShape":{"dim":[{"size":"64"}]}}},"dtype":{"type":"DT_FLOAT"}}},{"name":"resnet_v1_50/block1/unit_1/bottleneck_v1/conv2/weights","op":"Const","attr":{"dtype":{"type":"DT_FLOAT"},"value":{"tensor":{"dtype":"DT_FLOAT","tensorShape":{"dim":[{"size":"3"},{"size":"3"},{"size":"64"},{"size":"64"}]}}}}},{"name":"resnet_v1_50/block1/unit_1/bottleneck_v1/conv2/Conv2D_bias","op":"Const","attr":{"value":{"tensor":{"dtype":"DT_FLOAT","tensorShape":{"dim":[{"size":"64"}]}}},"dtype":{"type":"DT_FLOAT"}}},{"name":"resnet_v1_50/block1/unit_1/bottleneck_v1/conv3/weights","op":"Const","attr":{"value":{"tensor":{"dtype":"DT_FLOAT","tensorShape":{"dim":[{"size":"1"},{"size":"1"},{"size":"64"},{"size":"256"}]}}},"dtype":{"type":"DT_FLOAT"}}},{"name":"resnet_v1_50/block1/unit_1/bottleneck_v1/conv3/Conv2D_bias","op":"Const","attr":{"value":{"tensor":{"dtype":"DT_FLOAT","tensorShape":{"dim":[{"size":"256"}]}}},"dtype":{"type":"DT_FLOAT"}}},{"name":"resnet_v1_50/block1/unit_2/bottleneck_v1/conv1/weights","op":"Const","attr":{"value":{"tensor":{"dtype":"DT_FLOAT","tensorShape":{"dim":[{"size":"1"},{"size":"1"},{"size":"256"},{"size":"64"}]}}},"dtype":{"type":"DT_FLOAT"}}},{"name":"resnet_v1_50/block1/unit_2/bottleneck_v1/conv1/Conv2D_bias","op":"Const","attr":{"value":{"tensor":{"dtype":"DT_FLOAT","tensorShape":{"dim":[{"size":"64"}]}}},"dtype":{"type":"DT_FLOAT"}}},{"name":"resnet_v1_50/block1/unit_2/bottleneck_v1/conv2/weights","op":"Const","attr":{"dtype":{"type":"DT_FLOAT"},"value":{"tensor":{"dtype":"DT_FLOAT","tensorShape":{"dim":[{"size":"3"},{"size":"3"},{"size":"64"},{"size":"64"}]}}}}},{"name":"resnet_v1_50/block1/unit_2/bottleneck_v1/conv2/Conv2D_bias","op":"Const","attr":{"dtype":{"type":"DT_FLOAT"},"value":{"tensor":{"dtype":"DT_FLOAT","tensorShape":{"dim":[{"size":"64"}]}}}}},{"name":"resnet_v1_50/block1/unit_2/bottleneck_v1/conv3/weights","op":"Const","attr":{"value":{"tensor":{"dtype":"DT_FLOAT","tensorShape":{"dim":[{"size":"1"},{"size":"1"},{"size":"64"},{"size":"256"}]}}},"dtype":{"type":"DT_FLOAT"}}},{"name":"resnet_v1_50/block1/unit_2/bottleneck_v1/conv3/Conv2D_bias","op":"Const","attr":{"dtype":{"type":"DT_FLOAT"},"value":{"tensor":{"dtype":"DT_FLOAT","tensorShape":{"dim":[{"size":"256"}]}}}}},{"name":"resnet_v1_50/block1/unit_3/bottleneck_v1/conv1/weights","op":"Const","attr":{"value":{"tensor":{"dtype":"DT_FLOAT","tensorShape":{"dim":[{"size":"1"},{"size":"1"},{"size":"256"},{"size":"64"}]}}},"dtype":{"type":"DT_FLOAT"}}},{"name":"resnet_v1_50/block1/unit_3/bottleneck_v1/conv1/Conv2D_bias","op":"Const","attr":{"value":{"tensor":{"dtype":"DT_FLOAT","tensorShape":{"dim":[{"size":"64"}]}}},"dtype":{"type":"DT_FLOAT"}}},{"name":"resnet_v1_50/block1/unit_3/bottleneck_v1/conv2/weights","op":"Const","attr":{"value":{"tensor":{"dtype":"DT_FLOAT","tensorShape":{"dim":[{"size":"3"},{"size":"3"},{"size":"64"},{"size":"64"}]}}},"dtype":{"type":"DT_FLOAT"}}},{"name":"resnet_v1_50/block1/unit_3/bottleneck_v1/conv2/Conv2D_bias","op":"Const","attr":{"value":{"tensor":{"dtype":"DT_FLOAT","tensorShape":{"dim":[{"size":"64"}]}}},"dtype":{"type":"DT_FLOAT"}}},{"name":"resnet_v1_50/block1/unit_3/bottleneck_v1/conv3/weights","op":"Const","attr":{"value":{"tensor":{"dtype":"DT_FLOAT","tensorShape":{"dim":[{"size":"1"},{"size":"1"},{"size":"64"},{"size":"256"}]}}},"dtype":{"type":"DT_FLOAT"}}},{"name":"resnet_v1_50/block1/unit_3/bottleneck_v1/conv3/Conv2D_bias","op":"Const","attr":{"value":{"tensor":{"dtype":"DT_FLOAT","tensorShape":{"dim":[{"size":"256"}]}}},"dtype":{"type":"DT_FLOAT"}}},{"name":"resnet_v1_50/block2/unit_1/bottleneck_v1/shortcut/weights","op":"Const","attr":{"dtype":{"type":"DT_FLOAT"},"value":{"tensor":{"dtype":"DT_FLOAT","tensorShape":{"dim":[{"size":"1"},{"size":"1"},{"size":"256"},{"size":"512"}]}}}}},{"name":"resnet_v1_50/block2/unit_1/bottleneck_v1/shortcut/Conv2D_bias","op":"Const","attr":{"value":{"tensor":{"dtype":"DT_FLOAT","tensorShape":{"dim":[{"size":"512"}]}}},"dtype":{"type":"DT_FLOAT"}}},{"name":"resnet_v1_50/block2/unit_1/bottleneck_v1/conv1/weights","op":"Const","attr":{"value":{"tensor":{"dtype":"DT_FLOAT","tensorShape":{"dim":[{"size":"1"},{"size":"1"},{"size":"256"},{"size":"128"}]}}},"dtype":{"type":"DT_FLOAT"}}},{"name":"resnet_v1_50/block2/unit_1/bottleneck_v1/conv1/Conv2D_bias","op":"Const","attr":{"value":{"tensor":{"dtype":"DT_FLOAT","tensorShape":{"dim":[{"size":"128"}]}}},"dtype":{"type":"DT_FLOAT"}}},{"name":"resnet_v1_50/block2/unit_1/bottleneck_v1/conv2/weights","op":"Const","attr":{"value":{"tensor":{"dtype":"DT_FLOAT","tensorShape":{"dim":[{"size":"3"},{"size":"3"},{"size":"128"},{"size":"128"}]}}},"dtype":{"type":"DT_FLOAT"}}},{"name":"resnet_v1_50/block2/unit_1/bottleneck_v1/conv2/Conv2D_bias","op":"Const","attr":{"value":{"tensor":{"dtype":"DT_FLOAT","tensorShape":{"dim":[{"size":"128"}]}}},"dtype":{"type":"DT_FLOAT"}}},{"name":"resnet_v1_50/block2/unit_1/bottleneck_v1/conv3/weights","op":"Const","attr":{"value":{"tensor":{"dtype":"DT_FLOAT","tensorShape":{"dim":[{"size":"1"},{"size":"1"},{"size":"128"},{"size":"512"}]}}},"dtype":{"type":"DT_FLOAT"}}},{"name":"resnet_v1_50/block2/unit_1/bottleneck_v1/conv3/Conv2D_bias","op":"Const","attr":{"value":{"tensor":{"dtype":"DT_FLOAT","tensorShape":{"dim":[{"size":"512"}]}}},"dtype":{"type":"DT_FLOAT"}}},{"name":"resnet_v1_50/block2/unit_2/bottleneck_v1/conv1/weights","op":"Const","attr":{"value":{"tensor":{"dtype":"DT_FLOAT","tensorShape":{"dim":[{"size":"1"},{"size":"1"},{"size":"512"},{"size":"128"}]}}},"dtype":{"type":"DT_FLOAT"}}},{"name":"resnet_v1_50/block2/unit_2/bottleneck_v1/conv1/Conv2D_bias","op":"Const","attr":{"value":{"tensor":{"dtype":"DT_FLOAT","tensorShape":{"dim":[{"size":"128"}]}}},"dtype":{"type":"DT_FLOAT"}}},{"name":"resnet_v1_50/block2/unit_2/bottleneck_v1/conv2/weights","op":"Const","attr":{"value":{"tensor":{"dtype":"DT_FLOAT","tensorShape":{"dim":[{"size":"3"},{"size":"3"},{"size":"128"},{"size":"128"}]}}},"dtype":{"type":"DT_FLOAT"}}},{"name":"resnet_v1_50/block2/unit_2/bottleneck_v1/conv2/Conv2D_bias","op":"Const","attr":{"value":{"tensor":{"dtype":"DT_FLOAT","tensorShape":{"dim":[{"size":"128"}]}}},"dtype":{"type":"DT_FLOAT"}}},{"name":"resnet_v1_50/block2/unit_2/bottleneck_v1/conv3/weights","op":"Const","attr":{"dtype":{"type":"DT_FLOAT"},"value":{"tensor":{"dtype":"DT_FLOAT","tensorShape":{"dim":[{"size":"1"},{"size":"1"},{"size":"128"},{"size":"512"}]}}}}},{"name":"resnet_v1_50/block2/unit_2/bottleneck_v1/conv3/Conv2D_bias","op":"Const","attr":{"value":{"tensor":{"dtype":"DT_FLOAT","tensorShape":{"dim":[{"size":"512"}]}}},"dtype":{"type":"DT_FLOAT"}}},{"name":"resnet_v1_50/block2/unit_3/bottleneck_v1/conv1/weights","op":"Const","attr":{"value":{"tensor":{"dtype":"DT_FLOAT","tensorShape":{"dim":[{"size":"1"},{"size":"1"},{"size":"512"},{"size":"128"}]}}},"dtype":{"type":"DT_FLOAT"}}},{"name":"resnet_v1_50/block2/unit_3/bottleneck_v1/conv1/Conv2D_bias","op":"Const","attr":{"value":{"tensor":{"dtype":"DT_FLOAT","tensorShape":{"dim":[{"size":"128"}]}}},"dtype":{"type":"DT_FLOAT"}}},{"name":"resnet_v1_50/block2/unit_3/bottleneck_v1/conv2/weights","op":"Const","attr":{"value":{"tensor":{"dtype":"DT_FLOAT","tensorShape":{"dim":[{"size":"3"},{"size":"3"},{"size":"128"},{"size":"128"}]}}},"dtype":{"type":"DT_FLOAT"}}},{"name":"resnet_v1_50/block2/unit_3/bottleneck_v1/conv2/Conv2D_bias","op":"Const","attr":{"value":{"tensor":{"dtype":"DT_FLOAT","tensorShape":{"dim":[{"size":"128"}]}}},"dtype":{"type":"DT_FLOAT"}}},{"name":"resnet_v1_50/block2/unit_3/bottleneck_v1/conv3/weights","op":"Const","attr":{"dtype":{"type":"DT_FLOAT"},"value":{"tensor":{"dtype":"DT_FLOAT","tensorShape":{"dim":[{"size":"1"},{"size":"1"},{"size":"128"},{"size":"512"}]}}}}},{"name":"resnet_v1_50/block2/unit_3/bottleneck_v1/conv3/Conv2D_bias","op":"Const","attr":{"value":{"tensor":{"dtype":"DT_FLOAT","tensorShape":{"dim":[{"size":"512"}]}}},"dtype":{"type":"DT_FLOAT"}}},{"name":"resnet_v1_50/block2/unit_4/bottleneck_v1/conv1/weights","op":"Const","attr":{"value":{"tensor":{"dtype":"DT_FLOAT","tensorShape":{"dim":[{"size":"1"},{"size":"1"},{"size":"512"},{"size":"128"}]}}},"dtype":{"type":"DT_FLOAT"}}},{"name":"resnet_v1_50/block2/unit_4/bottleneck_v1/conv1/Conv2D_bias","op":"Const","attr":{"value":{"tensor":{"dtype":"DT_FLOAT","tensorShape":{"dim":[{"size":"128"}]}}},"dtype":{"type":"DT_FLOAT"}}},{"name":"resnet_v1_50/block2/unit_4/bottleneck_v1/conv2/weights","op":"Const","attr":{"value":{"tensor":{"dtype":"DT_FLOAT","tensorShape":{"dim":[{"size":"3"},{"size":"3"},{"size":"128"},{"size":"128"}]}}},"dtype":{"type":"DT_FLOAT"}}},{"name":"resnet_v1_50/block2/unit_4/bottleneck_v1/conv2/Conv2D_bias","op":"Const","attr":{"value":{"tensor":{"dtype":"DT_FLOAT","tensorShape":{"dim":[{"size":"128"}]}}},"dtype":{"type":"DT_FLOAT"}}},{"name":"resnet_v1_50/block2/unit_4/bottleneck_v1/conv3/weights","op":"Const","attr":{"value":{"tensor":{"dtype":"DT_FLOAT","tensorShape":{"dim":[{"size":"1"},{"size":"1"},{"size":"128"},{"size":"512"}]}}},"dtype":{"type":"DT_FLOAT"}}},{"name":"resnet_v1_50/block2/unit_4/bottleneck_v1/conv3/Conv2D_bias","op":"Const","attr":{"value":{"tensor":{"dtype":"DT_FLOAT","tensorShape":{"dim":[{"size":"512"}]}}},"dtype":{"type":"DT_FLOAT"}}},{"name":"resnet_v1_50/block3/unit_1/bottleneck_v1/shortcut/weights","op":"Const","attr":{"value":{"tensor":{"dtype":"DT_FLOAT","tensorShape":{"dim":[{"size":"1"},{"size":"1"},{"size":"512"},{"size":"1024"}]}}},"dtype":{"type":"DT_FLOAT"}}},{"name":"resnet_v1_50/block3/unit_1/bottleneck_v1/shortcut/Conv2D_bias","op":"Const","attr":{"value":{"tensor":{"dtype":"DT_FLOAT","tensorShape":{"dim":[{"size":"1024"}]}}},"dtype":{"type":"DT_FLOAT"}}},{"name":"resnet_v1_50/block3/unit_1/bottleneck_v1/conv1/weights","op":"Const","attr":{"dtype":{"type":"DT_FLOAT"},"value":{"tensor":{"dtype":"DT_FLOAT","tensorShape":{"dim":[{"size":"1"},{"size":"1"},{"size":"512"},{"size":"256"}]}}}}},{"name":"resnet_v1_50/block3/unit_1/bottleneck_v1/conv1/Conv2D_bias","op":"Const","attr":{"value":{"tensor":{"dtype":"DT_FLOAT","tensorShape":{"dim":[{"size":"256"}]}}},"dtype":{"type":"DT_FLOAT"}}},{"name":"resnet_v1_50/block3/unit_1/bottleneck_v1/conv2/weights","op":"Const","attr":{"value":{"tensor":{"dtype":"DT_FLOAT","tensorShape":{"dim":[{"size":"3"},{"size":"3"},{"size":"256"},{"size":"256"}]}}},"dtype":{"type":"DT_FLOAT"}}},{"name":"resnet_v1_50/block3/unit_1/bottleneck_v1/conv2/Conv2D_bias","op":"Const","attr":{"value":{"tensor":{"dtype":"DT_FLOAT","tensorShape":{"dim":[{"size":"256"}]}}},"dtype":{"type":"DT_FLOAT"}}},{"name":"resnet_v1_50/block3/unit_1/bottleneck_v1/conv3/weights","op":"Const","attr":{"value":{"tensor":{"dtype":"DT_FLOAT","tensorShape":{"dim":[{"size":"1"},{"size":"1"},{"size":"256"},{"size":"1024"}]}}},"dtype":{"type":"DT_FLOAT"}}},{"name":"resnet_v1_50/block3/unit_1/bottleneck_v1/conv3/Conv2D_bias","op":"Const","attr":{"value":{"tensor":{"dtype":"DT_FLOAT","tensorShape":{"dim":[{"size":"1024"}]}}},"dtype":{"type":"DT_FLOAT"}}},{"name":"resnet_v1_50/block3/unit_2/bottleneck_v1/conv1/weights","op":"Const","attr":{"value":{"tensor":{"dtype":"DT_FLOAT","tensorShape":{"dim":[{"size":"1"},{"size":"1"},{"size":"1024"},{"size":"256"}]}}},"dtype":{"type":"DT_FLOAT"}}},{"name":"resnet_v1_50/block3/unit_2/bottleneck_v1/conv1/Conv2D_bias","op":"Const","attr":{"value":{"tensor":{"dtype":"DT_FLOAT","tensorShape":{"dim":[{"size":"256"}]}}},"dtype":{"type":"DT_FLOAT"}}},{"name":"resnet_v1_50/block3/unit_2/bottleneck_v1/conv2/weights","op":"Const","attr":{"value":{"tensor":{"dtype":"DT_FLOAT","tensorShape":{"dim":[{"size":"3"},{"size":"3"},{"size":"256"},{"size":"256"}]}}},"dtype":{"type":"DT_FLOAT"}}},{"name":"resnet_v1_50/block3/unit_2/bottleneck_v1/conv2/Conv2D_bias","op":"Const","attr":{"value":{"tensor":{"dtype":"DT_FLOAT","tensorShape":{"dim":[{"size":"256"}]}}},"dtype":{"type":"DT_FLOAT"}}},{"name":"resnet_v1_50/block3/unit_2/bottleneck_v1/conv3/weights","op":"Const","attr":{"value":{"tensor":{"dtype":"DT_FLOAT","tensorShape":{"dim":[{"size":"1"},{"size":"1"},{"size":"256"},{"size":"1024"}]}}},"dtype":{"type":"DT_FLOAT"}}},{"name":"resnet_v1_50/block3/unit_2/bottleneck_v1/conv3/Conv2D_bias","op":"Const","attr":{"value":{"tensor":{"dtype":"DT_FLOAT","tensorShape":{"dim":[{"size":"1024"}]}}},"dtype":{"type":"DT_FLOAT"}}},{"name":"resnet_v1_50/block3/unit_3/bottleneck_v1/conv1/weights","op":"Const","attr":{"value":{"tensor":{"dtype":"DT_FLOAT","tensorShape":{"dim":[{"size":"1"},{"size":"1"},{"size":"1024"},{"size":"256"}]}}},"dtype":{"type":"DT_FLOAT"}}},{"name":"resnet_v1_50/block3/unit_3/bottleneck_v1/conv1/Conv2D_bias","op":"Const","attr":{"value":{"tensor":{"dtype":"DT_FLOAT","tensorShape":{"dim":[{"size":"256"}]}}},"dtype":{"type":"DT_FLOAT"}}},{"name":"resnet_v1_50/block3/unit_3/bottleneck_v1/conv2/weights","op":"Const","attr":{"value":{"tensor":{"dtype":"DT_FLOAT","tensorShape":{"dim":[{"size":"3"},{"size":"3"},{"size":"256"},{"size":"256"}]}}},"dtype":{"type":"DT_FLOAT"}}},{"name":"resnet_v1_50/block3/unit_3/bottleneck_v1/conv2/Conv2D_bias","op":"Const","attr":{"value":{"tensor":{"dtype":"DT_FLOAT","tensorShape":{"dim":[{"size":"256"}]}}},"dtype":{"type":"DT_FLOAT"}}},{"name":"resnet_v1_50/block3/unit_3/bottleneck_v1/conv3/weights","op":"Const","attr":{"value":{"tensor":{"dtype":"DT_FLOAT","tensorShape":{"dim":[{"size":"1"},{"size":"1"},{"size":"256"},{"size":"1024"}]}}},"dtype":{"type":"DT_FLOAT"}}},{"name":"resnet_v1_50/block3/unit_3/bottleneck_v1/conv3/Conv2D_bias","op":"Const","attr":{"value":{"tensor":{"dtype":"DT_FLOAT","tensorShape":{"dim":[{"size":"1024"}]}}},"dtype":{"type":"DT_FLOAT"}}},{"name":"resnet_v1_50/block3/unit_4/bottleneck_v1/conv1/weights","op":"Const","attr":{"value":{"tensor":{"dtype":"DT_FLOAT","tensorShape":{"dim":[{"size":"1"},{"size":"1"},{"size":"1024"},{"size":"256"}]}}},"dtype":{"type":"DT_FLOAT"}}},{"name":"resnet_v1_50/block3/unit_4/bottleneck_v1/conv1/Conv2D_bias","op":"Const","attr":{"value":{"tensor":{"dtype":"DT_FLOAT","tensorShape":{"dim":[{"size":"256"}]}}},"dtype":{"type":"DT_FLOAT"}}},{"name":"resnet_v1_50/block3/unit_4/bottleneck_v1/conv2/weights","op":"Const","attr":{"value":{"tensor":{"dtype":"DT_FLOAT","tensorShape":{"dim":[{"size":"3"},{"size":"3"},{"size":"256"},{"size":"256"}]}}},"dtype":{"type":"DT_FLOAT"}}},{"name":"resnet_v1_50/block3/unit_4/bottleneck_v1/conv2/Conv2D_bias","op":"Const","attr":{"value":{"tensor":{"dtype":"DT_FLOAT","tensorShape":{"dim":[{"size":"256"}]}}},"dtype":{"type":"DT_FLOAT"}}},{"name":"resnet_v1_50/block3/unit_4/bottleneck_v1/conv3/weights","op":"Const","attr":{"value":{"tensor":{"dtype":"DT_FLOAT","tensorShape":{"dim":[{"size":"1"},{"size":"1"},{"size":"256"},{"size":"1024"}]}}},"dtype":{"type":"DT_FLOAT"}}},{"name":"resnet_v1_50/block3/unit_4/bottleneck_v1/conv3/Conv2D_bias","op":"Const","attr":{"value":{"tensor":{"dtype":"DT_FLOAT","tensorShape":{"dim":[{"size":"1024"}]}}},"dtype":{"type":"DT_FLOAT"}}},{"name":"resnet_v1_50/block3/unit_5/bottleneck_v1/conv1/weights","op":"Const","attr":{"value":{"tensor":{"dtype":"DT_FLOAT","tensorShape":{"dim":[{"size":"1"},{"size":"1"},{"size":"1024"},{"size":"256"}]}}},"dtype":{"type":"DT_FLOAT"}}},{"name":"resnet_v1_50/block3/unit_5/bottleneck_v1/conv1/Conv2D_bias","op":"Const","attr":{"value":{"tensor":{"dtype":"DT_FLOAT","tensorShape":{"dim":[{"size":"256"}]}}},"dtype":{"type":"DT_FLOAT"}}},{"name":"resnet_v1_50/block3/unit_5/bottleneck_v1/conv2/weights","op":"Const","attr":{"dtype":{"type":"DT_FLOAT"},"value":{"tensor":{"dtype":"DT_FLOAT","tensorShape":{"dim":[{"size":"3"},{"size":"3"},{"size":"256"},{"size":"256"}]}}}}},{"name":"resnet_v1_50/block3/unit_5/bottleneck_v1/conv2/Conv2D_bias","op":"Const","attr":{"value":{"tensor":{"dtype":"DT_FLOAT","tensorShape":{"dim":[{"size":"256"}]}}},"dtype":{"type":"DT_FLOAT"}}},{"name":"resnet_v1_50/block3/unit_5/bottleneck_v1/conv3/weights","op":"Const","attr":{"value":{"tensor":{"dtype":"DT_FLOAT","tensorShape":{"dim":[{"size":"1"},{"size":"1"},{"size":"256"},{"size":"1024"}]}}},"dtype":{"type":"DT_FLOAT"}}},{"name":"resnet_v1_50/block3/unit_5/bottleneck_v1/conv3/Conv2D_bias","op":"Const","attr":{"value":{"tensor":{"dtype":"DT_FLOAT","tensorShape":{"dim":[{"size":"1024"}]}}},"dtype":{"type":"DT_FLOAT"}}},{"name":"resnet_v1_50/block3/unit_6/bottleneck_v1/conv1/weights","op":"Const","attr":{"value":{"tensor":{"dtype":"DT_FLOAT","tensorShape":{"dim":[{"size":"1"},{"size":"1"},{"size":"1024"},{"size":"256"}]}}},"dtype":{"type":"DT_FLOAT"}}},{"name":"resnet_v1_50/block3/unit_6/bottleneck_v1/conv1/Conv2D_bias","op":"Const","attr":{"value":{"tensor":{"dtype":"DT_FLOAT","tensorShape":{"dim":[{"size":"256"}]}}},"dtype":{"type":"DT_FLOAT"}}},{"name":"resnet_v1_50/block3/unit_6/bottleneck_v1/conv2/weights","op":"Const","attr":{"value":{"tensor":{"dtype":"DT_FLOAT","tensorShape":{"dim":[{"size":"3"},{"size":"3"},{"size":"256"},{"size":"256"}]}}},"dtype":{"type":"DT_FLOAT"}}},{"name":"resnet_v1_50/block3/unit_6/bottleneck_v1/conv2/Conv2D_bias","op":"Const","attr":{"value":{"tensor":{"dtype":"DT_FLOAT","tensorShape":{"dim":[{"size":"256"}]}}},"dtype":{"type":"DT_FLOAT"}}},{"name":"resnet_v1_50/block3/unit_6/bottleneck_v1/conv3/weights","op":"Const","attr":{"value":{"tensor":{"dtype":"DT_FLOAT","tensorShape":{"dim":[{"size":"1"},{"size":"1"},{"size":"256"},{"size":"1024"}]}}},"dtype":{"type":"DT_FLOAT"}}},{"name":"resnet_v1_50/block3/unit_6/bottleneck_v1/conv3/Conv2D_bias","op":"Const","attr":{"value":{"tensor":{"dtype":"DT_FLOAT","tensorShape":{"dim":[{"size":"1024"}]}}},"dtype":{"type":"DT_FLOAT"}}},{"name":"resnet_v1_50/block4/unit_1/bottleneck_v1/shortcut/weights","op":"Const","attr":{"value":{"tensor":{"dtype":"DT_FLOAT","tensorShape":{"dim":[{"size":"1"},{"size":"1"},{"size":"1024"},{"size":"2048"}]}}},"dtype":{"type":"DT_FLOAT"}}},{"name":"resnet_v1_50/block4/unit_1/bottleneck_v1/shortcut/Conv2D_bias","op":"Const","attr":{"value":{"tensor":{"dtype":"DT_FLOAT","tensorShape":{"dim":[{"size":"2048"}]}}},"dtype":{"type":"DT_FLOAT"}}},{"name":"resnet_v1_50/block4/unit_1/bottleneck_v1/conv1/weights","op":"Const","attr":{"value":{"tensor":{"dtype":"DT_FLOAT","tensorShape":{"dim":[{"size":"1"},{"size":"1"},{"size":"1024"},{"size":"512"}]}}},"dtype":{"type":"DT_FLOAT"}}},{"name":"resnet_v1_50/block4/unit_1/bottleneck_v1/conv1/Conv2D_bias","op":"Const","attr":{"value":{"tensor":{"dtype":"DT_FLOAT","tensorShape":{"dim":[{"size":"512"}]}}},"dtype":{"type":"DT_FLOAT"}}},{"name":"resnet_v1_50/block4/unit_1/bottleneck_v1/conv2/weights","op":"Const","attr":{"value":{"tensor":{"dtype":"DT_FLOAT","tensorShape":{"dim":[{"size":"3"},{"size":"3"},{"size":"512"},{"size":"512"}]}}},"dtype":{"type":"DT_FLOAT"}}},{"name":"resnet_v1_50/block4/unit_1/bottleneck_v1/conv2/Conv2D_bias","op":"Const","attr":{"value":{"tensor":{"dtype":"DT_FLOAT","tensorShape":{"dim":[{"size":"512"}]}}},"dtype":{"type":"DT_FLOAT"}}},{"name":"resnet_v1_50/block4/unit_1/bottleneck_v1/conv3/weights","op":"Const","attr":{"value":{"tensor":{"dtype":"DT_FLOAT","tensorShape":{"dim":[{"size":"1"},{"size":"1"},{"size":"512"},{"size":"2048"}]}}},"dtype":{"type":"DT_FLOAT"}}},{"name":"resnet_v1_50/block4/unit_1/bottleneck_v1/conv3/Conv2D_bias","op":"Const","attr":{"value":{"tensor":{"dtype":"DT_FLOAT","tensorShape":{"dim":[{"size":"2048"}]}}},"dtype":{"type":"DT_FLOAT"}}},{"name":"resnet_v1_50/block4/unit_2/bottleneck_v1/conv1/weights","op":"Const","attr":{"value":{"tensor":{"dtype":"DT_FLOAT","tensorShape":{"dim":[{"size":"1"},{"size":"1"},{"size":"2048"},{"size":"512"}]}}},"dtype":{"type":"DT_FLOAT"}}},{"name":"resnet_v1_50/block4/unit_2/bottleneck_v1/conv1/Conv2D_bias","op":"Const","attr":{"value":{"tensor":{"dtype":"DT_FLOAT","tensorShape":{"dim":[{"size":"512"}]}}},"dtype":{"type":"DT_FLOAT"}}},{"name":"resnet_v1_50/block4/unit_2/bottleneck_v1/conv2/weights","op":"Const","attr":{"value":{"tensor":{"dtype":"DT_FLOAT","tensorShape":{"dim":[{"size":"3"},{"size":"3"},{"size":"512"},{"size":"512"}]}}},"dtype":{"type":"DT_FLOAT"}}},{"name":"resnet_v1_50/block4/unit_2/bottleneck_v1/conv2/Conv2D_bias","op":"Const","attr":{"value":{"tensor":{"dtype":"DT_FLOAT","tensorShape":{"dim":[{"size":"512"}]}}},"dtype":{"type":"DT_FLOAT"}}},{"name":"resnet_v1_50/block4/unit_2/bottleneck_v1/conv3/weights","op":"Const","attr":{"value":{"tensor":{"dtype":"DT_FLOAT","tensorShape":{"dim":[{"size":"1"},{"size":"1"},{"size":"512"},{"size":"2048"}]}}},"dtype":{"type":"DT_FLOAT"}}},{"name":"resnet_v1_50/block4/unit_2/bottleneck_v1/conv3/Conv2D_bias","op":"Const","attr":{"value":{"tensor":{"dtype":"DT_FLOAT","tensorShape":{"dim":[{"size":"2048"}]}}},"dtype":{"type":"DT_FLOAT"}}},{"name":"resnet_v1_50/block4/unit_3/bottleneck_v1/conv1/weights","op":"Const","attr":{"value":{"tensor":{"dtype":"DT_FLOAT","tensorShape":{"dim":[{"size":"1"},{"size":"1"},{"size":"2048"},{"size":"512"}]}}},"dtype":{"type":"DT_FLOAT"}}},{"name":"resnet_v1_50/block4/unit_3/bottleneck_v1/conv1/Conv2D_bias","op":"Const","attr":{"value":{"tensor":{"dtype":"DT_FLOAT","tensorShape":{"dim":[{"size":"512"}]}}},"dtype":{"type":"DT_FLOAT"}}},{"name":"resnet_v1_50/block4/unit_3/bottleneck_v1/conv2/weights","op":"Const","attr":{"value":{"tensor":{"dtype":"DT_FLOAT","tensorShape":{"dim":[{"size":"3"},{"size":"3"},{"size":"512"},{"size":"512"}]}}},"dtype":{"type":"DT_FLOAT"}}},{"name":"resnet_v1_50/block4/unit_3/bottleneck_v1/conv2/Conv2D_bias","op":"Const","attr":{"value":{"tensor":{"dtype":"DT_FLOAT","tensorShape":{"dim":[{"size":"512"}]}}},"dtype":{"type":"DT_FLOAT"}}},{"name":"resnet_v1_50/block4/unit_3/bottleneck_v1/conv3/weights","op":"Const","attr":{"value":{"tensor":{"dtype":"DT_FLOAT","tensorShape":{"dim":[{"size":"1"},{"size":"1"},{"size":"512"},{"size":"2048"}]}}},"dtype":{"type":"DT_FLOAT"}}},{"name":"resnet_v1_50/block4/unit_3/bottleneck_v1/conv3/Conv2D_bias","op":"Const","attr":{"value":{"tensor":{"dtype":"DT_FLOAT","tensorShape":{"dim":[{"size":"2048"}]}}},"dtype":{"type":"DT_FLOAT"}}},{"name":"resnet_v1_50/displacement_bwd_2/weights","op":"Const","attr":{"value":{"tensor":{"dtype":"DT_FLOAT","tensorShape":{"dim":[{"size":"1"},{"size":"1"},{"size":"2048"},{"size":"32"}]}}},"dtype":{"type":"DT_FLOAT"}}},{"name":"resnet_v1_50/displacement_bwd_2/Conv2D_bias","op":"Const","attr":{"value":{"tensor":{"dtype":"DT_FLOAT","tensorShape":{"dim":[{"size":"32"}]}}},"dtype":{"type":"DT_FLOAT"}}},{"name":"resnet_v1_50/displacement_fwd_2/weights","op":"Const","attr":{"value":{"tensor":{"dtype":"DT_FLOAT","tensorShape":{"dim":[{"size":"1"},{"size":"1"},{"size":"2048"},{"size":"32"}]}}},"dtype":{"type":"DT_FLOAT"}}},{"name":"resnet_v1_50/displacement_fwd_2/Conv2D_bias","op":"Const","attr":{"value":{"tensor":{"dtype":"DT_FLOAT","tensorShape":{"dim":[{"size":"32"}]}}},"dtype":{"type":"DT_FLOAT"}}},{"name":"resnet_v1_50/heatmap_2/weights","op":"Const","attr":{"value":{"tensor":{"dtype":"DT_FLOAT","tensorShape":{"dim":[{"size":"1"},{"size":"1"},{"size":"2048"},{"size":"17"}]}}},"dtype":{"type":"DT_FLOAT"}}},{"name":"resnet_v1_50/heatmap_2/Conv2D_bias","op":"Const","attr":{"value":{"tensor":{"dtype":"DT_FLOAT","tensorShape":{"dim":[{"size":"17"}]}}},"dtype":{"type":"DT_FLOAT"}}},{"name":"resnet_v1_50/embedding_2/weights","op":"Const","attr":{"value":{"tensor":{"dtype":"DT_FLOAT","tensorShape":{"dim":[{"size":"1"},{"size":"1"},{"size":"2048"},{"size":"34"}]}}},"dtype":{"type":"DT_FLOAT"}}},{"name":"resnet_v1_50/embedding_2/Conv2D_bias","op":"Const","attr":{"value":{"tensor":{"dtype":"DT_FLOAT","tensorShape":{"dim":[{"size":"34"}]}}},"dtype":{"type":"DT_FLOAT"}}},{"name":"resnet_v1_50/offset_2/weights","op":"Const","attr":{"value":{"tensor":{"dtype":"DT_FLOAT","tensorShape":{"dim":[{"size":"1"},{"size":"1"},{"size":"2048"},{"size":"34"}]}}},"dtype":{"type":"DT_FLOAT"}}},{"name":"resnet_v1_50/offset_2/Conv2D_bias","op":"Const","attr":{"value":{"tensor":{"dtype":"DT_FLOAT","tensorShape":{"dim":[{"size":"34"}]}}},"dtype":{"type":"DT_FLOAT"}}},{"name":"resnet_v1_50/part_heatmap_2/weights","op":"Const","attr":{"value":{"tensor":{"dtype":"DT_FLOAT","tensorShape":{"dim":[{"size":"1"},{"size":"1"},{"size":"2048"},{"size":"24"}]}}},"dtype":{"type":"DT_FLOAT"}}},{"name":"resnet_v1_50/part_heatmap_2/Conv2D_bias","op":"Const","attr":{"value":{"tensor":{"dtype":"DT_FLOAT","tensorShape":{"dim":[{"size":"24"}]}}},"dtype":{"type":"DT_FLOAT"}}},{"name":"resnet_v1_50/part_offset_2/weights","op":"Const","attr":{"value":{"tensor":{"dtype":"DT_FLOAT","tensorShape":{"dim":[{"size":"1"},{"size":"1"},{"size":"2048"},{"size":"48"}]}}},"dtype":{"type":"DT_FLOAT"}}},{"name":"resnet_v1_50/part_offset_2/Conv2D_bias","op":"Const","attr":{"value":{"tensor":{"dtype":"DT_FLOAT","tensorShape":{"dim":[{"size":"48"}]}}},"dtype":{"type":"DT_FLOAT"}}},{"name":"clip_by_value/Minimum/y","op":"Const","attr":{"value":{"tensor":{"dtype":"DT_FLOAT","tensorShape":{}}},"dtype":{"type":"DT_FLOAT"}}},{"name":"clip_by_value/y","op":"Const","attr":{"value":{"tensor":{"dtype":"DT_FLOAT","tensorShape":{}}},"dtype":{"type":"DT_FLOAT"}}},{"name":"resnet_v1_50/segment_2/weights","op":"Const","attr":{"value":{"tensor":{"dtype":"DT_FLOAT","tensorShape":{"dim":[{"size":"1"},{"size":"1"},{"size":"2048"},{"size":"1"}]}}},"dtype":{"type":"DT_FLOAT"}}},{"name":"resnet_v1_50/segment_2/Conv2D_bias","op":"Const","attr":{"value":{"tensor":{"dtype":"DT_FLOAT","tensorShape":{"dim":[{"size":"1"}]}}},"dtype":{"type":"DT_FLOAT"}}},{"name":"resnet_v1_50/Pad","op":"Pad","input":["sub_2","resnet_v1_50/Pad/paddings"],"attr":{"T":{"type":"DT_FLOAT"},"Tpaddings":{"type":"DT_INT32"}}},{"name":"resnet_v1_50/conv1/BatchNorm/batchnorm_1/add_1/conv","op":"Conv2D","input":["resnet_v1_50/Pad","resnet_v1_50/conv1/weights"],"attr":{"T":{"type":"DT_FLOAT"},"strides":{"list":{"i":["1","2","2","1"]}},"data_format":{"s":"TkhXQw=="},"explicit_paddings":{"list":{}},"use_cudnn_on_gpu":{"b":true},"padding":{"s":"VkFMSUQ="},"dilations":{"list":{"i":["1","1","1","1"]}}}},{"name":"resnet_v1_50/conv1/BatchNorm/batchnorm_1/add_1","op":"BiasAdd","input":["resnet_v1_50/conv1/BatchNorm/batchnorm_1/add_1/conv","resnet_v1_50/conv1/Conv2D_bias"],"attr":{"T":{"type":"DT_FLOAT"},"data_format":{"s":"TkhXQw=="}}},{"name":"resnet_v1_50/conv1/Relu","op":"Relu","input":["resnet_v1_50/conv1/BatchNorm/batchnorm_1/add_1"],"attr":{"T":{"type":"DT_FLOAT"}}},{"name":"resnet_v1_50/Pad_1","op":"Pad","input":["resnet_v1_50/conv1/Relu","resnet_v1_50/Pad_1/paddings"],"attr":{"T":{"type":"DT_FLOAT"},"Tpaddings":{"type":"DT_INT32"}}},{"name":"resnet_v1_50/pool1/MaxPool","op":"MaxPool","input":["resnet_v1_50/Pad_1"],"attr":{"ksize":{"list":{"i":["1","3","3","1"]}},"padding":{"s":"VkFMSUQ="},"T":{"type":"DT_FLOAT"},"strides":{"list":{"i":["1","2","2","1"]}},"data_format":{"s":"TkhXQw=="}}},{"name":"resnet_v1_50/block1/unit_1/bottleneck_v1/shortcut/BatchNorm/batchnorm_1/add_1/conv","op":"Conv2D","input":["resnet_v1_50/pool1/MaxPool","resnet_v1_50/block1/unit_1/bottleneck_v1/shortcut/weights"],"attr":{"strides":{"list":{"i":["1","1","1","1"]}},"data_format":{"s":"TkhXQw=="},"use_cudnn_on_gpu":{"b":true},"explicit_paddings":{"list":{}},"padding":{"s":"U0FNRQ=="},"dilations":{"list":{"i":["1","1","1","1"]}},"T":{"type":"DT_FLOAT"}}},{"name":"resnet_v1_50/block1/unit_1/bottleneck_v1/conv1/BatchNorm/batchnorm_1/add_1/conv","op":"Conv2D","input":["resnet_v1_50/pool1/MaxPool","resnet_v1_50/block1/unit_1/bottleneck_v1/conv1/weights"],"attr":{"padding":{"s":"U0FNRQ=="},"dilations":{"list":{"i":["1","1","1","1"]}},"T":{"type":"DT_FLOAT"},"strides":{"list":{"i":["1","1","1","1"]}},"data_format":{"s":"TkhXQw=="},"explicit_paddings":{"list":{}},"use_cudnn_on_gpu":{"b":true}}},{"name":"resnet_v1_50/block1/unit_1/bottleneck_v1/shortcut/BatchNorm/batchnorm_1/add_1","op":"BiasAdd","input":["resnet_v1_50/block1/unit_1/bottleneck_v1/shortcut/BatchNorm/batchnorm_1/add_1/conv","resnet_v1_50/block1/unit_1/bottleneck_v1/shortcut/Conv2D_bias"],"attr":{"T":{"type":"DT_FLOAT"},"data_format":{"s":"TkhXQw=="}}},{"name":"resnet_v1_50/block1/unit_1/bottleneck_v1/conv1/BatchNorm/batchnorm_1/add_1","op":"BiasAdd","input":["resnet_v1_50/block1/unit_1/bottleneck_v1/conv1/BatchNorm/batchnorm_1/add_1/conv","resnet_v1_50/block1/unit_1/bottleneck_v1/conv1/Conv2D_bias"],"attr":{"data_format":{"s":"TkhXQw=="},"T":{"type":"DT_FLOAT"}}},{"name":"resnet_v1_50/block1/unit_1/bottleneck_v1/conv1/Relu","op":"Relu","input":["resnet_v1_50/block1/unit_1/bottleneck_v1/conv1/BatchNorm/batchnorm_1/add_1"],"attr":{"T":{"type":"DT_FLOAT"}}},{"name":"resnet_v1_50/block1/unit_1/bottleneck_v1/conv2/BatchNorm/batchnorm_1/add_1/conv","op":"Conv2D","input":["resnet_v1_50/block1/unit_1/bottleneck_v1/conv1/Relu","resnet_v1_50/block1/unit_1/bottleneck_v1/conv2/weights"],"attr":{"dilations":{"list":{"i":["1","1","1","1"]}},"T":{"type":"DT_FLOAT"},"data_format":{"s":"TkhXQw=="},"strides":{"list":{"i":["1","1","1","1"]}},"use_cudnn_on_gpu":{"b":true},"explicit_paddings":{"list":{}},"padding":{"s":"U0FNRQ=="}}},{"name":"resnet_v1_50/block1/unit_1/bottleneck_v1/conv2/BatchNorm/batchnorm_1/add_1","op":"BiasAdd","input":["resnet_v1_50/block1/unit_1/bottleneck_v1/conv2/BatchNorm/batchnorm_1/add_1/conv","resnet_v1_50/block1/unit_1/bottleneck_v1/conv2/Conv2D_bias"],"attr":{"data_format":{"s":"TkhXQw=="},"T":{"type":"DT_FLOAT"}}},{"name":"resnet_v1_50/block1/unit_1/bottleneck_v1/conv2/Relu","op":"Relu","input":["resnet_v1_50/block1/unit_1/bottleneck_v1/conv2/BatchNorm/batchnorm_1/add_1"],"attr":{"T":{"type":"DT_FLOAT"}}},{"name":"resnet_v1_50/block1/unit_1/bottleneck_v1/conv3/BatchNorm/batchnorm_1/add_1/conv","op":"Conv2D","input":["resnet_v1_50/block1/unit_1/bottleneck_v1/conv2/Relu","resnet_v1_50/block1/unit_1/bottleneck_v1/conv3/weights"],"attr":{"T":{"type":"DT_FLOAT"},"data_format":{"s":"TkhXQw=="},"strides":{"list":{"i":["1","1","1","1"]}},"use_cudnn_on_gpu":{"b":true},"explicit_paddings":{"list":{}},"padding":{"s":"U0FNRQ=="},"dilations":{"list":{"i":["1","1","1","1"]}}}},{"name":"resnet_v1_50/block1/unit_1/bottleneck_v1/conv3/BatchNorm/batchnorm_1/add_1","op":"BiasAdd","input":["resnet_v1_50/block1/unit_1/bottleneck_v1/conv3/BatchNorm/batchnorm_1/add_1/conv","resnet_v1_50/block1/unit_1/bottleneck_v1/conv3/Conv2D_bias"],"attr":{"data_format":{"s":"TkhXQw=="},"T":{"type":"DT_FLOAT"}}},{"name":"resnet_v1_50/block1/unit_1/bottleneck_v1/add","op":"Add","input":["resnet_v1_50/block1/unit_1/bottleneck_v1/conv3/BatchNorm/batchnorm_1/add_1","resnet_v1_50/block1/unit_1/bottleneck_v1/shortcut/BatchNorm/batchnorm_1/add_1"],"attr":{"T":{"type":"DT_FLOAT"}}},{"name":"resnet_v1_50/block1/unit_1/bottleneck_v1/Relu","op":"Relu","input":["resnet_v1_50/block1/unit_1/bottleneck_v1/add"],"attr":{"T":{"type":"DT_FLOAT"}}},{"name":"resnet_v1_50/block1/unit_2/bottleneck_v1/conv1/BatchNorm/batchnorm_1/add_1/conv","op":"Conv2D","input":["resnet_v1_50/block1/unit_1/bottleneck_v1/Relu","resnet_v1_50/block1/unit_2/bottleneck_v1/conv1/weights"],"attr":{"dilations":{"list":{"i":["1","1","1","1"]}},"T":{"type":"DT_FLOAT"},"data_format":{"s":"TkhXQw=="},"strides":{"list":{"i":["1","1","1","1"]}},"explicit_paddings":{"list":{}},"use_cudnn_on_gpu":{"b":true},"padding":{"s":"U0FNRQ=="}}},{"name":"resnet_v1_50/block1/unit_2/bottleneck_v1/conv1/BatchNorm/batchnorm_1/add_1","op":"BiasAdd","input":["resnet_v1_50/block1/unit_2/bottleneck_v1/conv1/BatchNorm/batchnorm_1/add_1/conv","resnet_v1_50/block1/unit_2/bottleneck_v1/conv1/Conv2D_bias"],"attr":{"T":{"type":"DT_FLOAT"},"data_format":{"s":"TkhXQw=="}}},{"name":"resnet_v1_50/block1/unit_2/bottleneck_v1/conv1/Relu","op":"Relu","input":["resnet_v1_50/block1/unit_2/bottleneck_v1/conv1/BatchNorm/batchnorm_1/add_1"],"attr":{"T":{"type":"DT_FLOAT"}}},{"name":"resnet_v1_50/block1/unit_2/bottleneck_v1/conv2/BatchNorm/batchnorm_1/add_1/conv","op":"Conv2D","input":["resnet_v1_50/block1/unit_2/bottleneck_v1/conv1/Relu","resnet_v1_50/block1/unit_2/bottleneck_v1/conv2/weights"],"attr":{"dilations":{"list":{"i":["1","1","1","1"]}},"T":{"type":"DT_FLOAT"},"strides":{"list":{"i":["1","1","1","1"]}},"data_format":{"s":"TkhXQw=="},"use_cudnn_on_gpu":{"b":true},"explicit_paddings":{"list":{}},"padding":{"s":"U0FNRQ=="}}},{"name":"resnet_v1_50/block1/unit_2/bottleneck_v1/conv2/BatchNorm/batchnorm_1/add_1","op":"BiasAdd","input":["resnet_v1_50/block1/unit_2/bottleneck_v1/conv2/BatchNorm/batchnorm_1/add_1/conv","resnet_v1_50/block1/unit_2/bottleneck_v1/conv2/Conv2D_bias"],"attr":{"T":{"type":"DT_FLOAT"},"data_format":{"s":"TkhXQw=="}}},{"name":"resnet_v1_50/block1/unit_2/bottleneck_v1/conv2/Relu","op":"Relu","input":["resnet_v1_50/block1/unit_2/bottleneck_v1/conv2/BatchNorm/batchnorm_1/add_1"],"attr":{"T":{"type":"DT_FLOAT"}}},{"name":"resnet_v1_50/block1/unit_2/bottleneck_v1/conv3/BatchNorm/batchnorm_1/add_1/conv","op":"Conv2D","input":["resnet_v1_50/block1/unit_2/bottleneck_v1/conv2/Relu","resnet_v1_50/block1/unit_2/bottleneck_v1/conv3/weights"],"attr":{"padding":{"s":"U0FNRQ=="},"dilations":{"list":{"i":["1","1","1","1"]}},"T":{"type":"DT_FLOAT"},"data_format":{"s":"TkhXQw=="},"strides":{"list":{"i":["1","1","1","1"]}},"use_cudnn_on_gpu":{"b":true},"explicit_paddings":{"list":{}}}},{"name":"resnet_v1_50/block1/unit_2/bottleneck_v1/conv3/BatchNorm/batchnorm_1/add_1","op":"BiasAdd","input":["resnet_v1_50/block1/unit_2/bottleneck_v1/conv3/BatchNorm/batchnorm_1/add_1/conv","resnet_v1_50/block1/unit_2/bottleneck_v1/conv3/Conv2D_bias"],"attr":{"T":{"type":"DT_FLOAT"},"data_format":{"s":"TkhXQw=="}}},{"name":"resnet_v1_50/block1/unit_2/bottleneck_v1/add","op":"Add","input":["resnet_v1_50/block1/unit_1/bottleneck_v1/Relu","resnet_v1_50/block1/unit_2/bottleneck_v1/conv3/BatchNorm/batchnorm_1/add_1"],"attr":{"T":{"type":"DT_FLOAT"}}},{"name":"resnet_v1_50/block1/unit_2/bottleneck_v1/Relu","op":"Relu","input":["resnet_v1_50/block1/unit_2/bottleneck_v1/add"],"attr":{"T":{"type":"DT_FLOAT"}}},{"name":"resnet_v1_50/block1/unit_3/bottleneck_v1/shortcut/MaxPool","op":"MaxPool","input":["resnet_v1_50/block1/unit_2/bottleneck_v1/Relu"],"attr":{"data_format":{"s":"TkhXQw=="},"strides":{"list":{"i":["1","2","2","1"]}},"ksize":{"list":{"i":["1","1","1","1"]}},"padding":{"s":"U0FNRQ=="},"T":{"type":"DT_FLOAT"}}},{"name":"resnet_v1_50/block1/unit_3/bottleneck_v1/conv1/BatchNorm/batchnorm_1/add_1/conv","op":"Conv2D","input":["resnet_v1_50/block1/unit_2/bottleneck_v1/Relu","resnet_v1_50/block1/unit_3/bottleneck_v1/conv1/weights"],"attr":{"dilations":{"list":{"i":["1","1","1","1"]}},"T":{"type":"DT_FLOAT"},"strides":{"list":{"i":["1","1","1","1"]}},"data_format":{"s":"TkhXQw=="},"explicit_paddings":{"list":{}},"use_cudnn_on_gpu":{"b":true},"padding":{"s":"U0FNRQ=="}}},{"name":"resnet_v1_50/block1/unit_3/bottleneck_v1/conv1/BatchNorm/batchnorm_1/add_1","op":"BiasAdd","input":["resnet_v1_50/block1/unit_3/bottleneck_v1/conv1/BatchNorm/batchnorm_1/add_1/conv","resnet_v1_50/block1/unit_3/bottleneck_v1/conv1/Conv2D_bias"],"attr":{"T":{"type":"DT_FLOAT"},"data_format":{"s":"TkhXQw=="}}},{"name":"resnet_v1_50/block1/unit_3/bottleneck_v1/conv1/Relu","op":"Relu","input":["resnet_v1_50/block1/unit_3/bottleneck_v1/conv1/BatchNorm/batchnorm_1/add_1"],"attr":{"T":{"type":"DT_FLOAT"}}},{"name":"resnet_v1_50/block1/unit_3/bottleneck_v1/Pad","op":"Pad","input":["resnet_v1_50/block1/unit_3/bottleneck_v1/conv1/Relu","resnet_v1_50/Pad_1/paddings"],"attr":{"T":{"type":"DT_FLOAT"},"Tpaddings":{"type":"DT_INT32"}}},{"name":"resnet_v1_50/block1/unit_3/bottleneck_v1/conv2/BatchNorm/batchnorm_1/add_1/conv","op":"Conv2D","input":["resnet_v1_50/block1/unit_3/bottleneck_v1/Pad","resnet_v1_50/block1/unit_3/bottleneck_v1/conv2/weights"],"attr":{"T":{"type":"DT_FLOAT"},"data_format":{"s":"TkhXQw=="},"strides":{"list":{"i":["1","2","2","1"]}},"explicit_paddings":{"list":{}},"use_cudnn_on_gpu":{"b":true},"padding":{"s":"VkFMSUQ="},"dilations":{"list":{"i":["1","1","1","1"]}}}},{"name":"resnet_v1_50/block1/unit_3/bottleneck_v1/conv2/BatchNorm/batchnorm_1/add_1","op":"BiasAdd","input":["resnet_v1_50/block1/unit_3/bottleneck_v1/conv2/BatchNorm/batchnorm_1/add_1/conv","resnet_v1_50/block1/unit_3/bottleneck_v1/conv2/Conv2D_bias"],"attr":{"T":{"type":"DT_FLOAT"},"data_format":{"s":"TkhXQw=="}}},{"name":"resnet_v1_50/block1/unit_3/bottleneck_v1/conv2/Relu","op":"Relu","input":["resnet_v1_50/block1/unit_3/bottleneck_v1/conv2/BatchNorm/batchnorm_1/add_1"],"attr":{"T":{"type":"DT_FLOAT"}}},{"name":"resnet_v1_50/block1/unit_3/bottleneck_v1/conv3/BatchNorm/batchnorm_1/add_1/conv","op":"Conv2D","input":["resnet_v1_50/block1/unit_3/bottleneck_v1/conv2/Relu","resnet_v1_50/block1/unit_3/bottleneck_v1/conv3/weights"],"attr":{"T":{"type":"DT_FLOAT"},"data_format":{"s":"TkhXQw=="},"strides":{"list":{"i":["1","1","1","1"]}},"explicit_paddings":{"list":{}},"use_cudnn_on_gpu":{"b":true},"padding":{"s":"U0FNRQ=="},"dilations":{"list":{"i":["1","1","1","1"]}}}},{"name":"resnet_v1_50/block1/unit_3/bottleneck_v1/conv3/BatchNorm/batchnorm_1/add_1","op":"BiasAdd","input":["resnet_v1_50/block1/unit_3/bottleneck_v1/conv3/BatchNorm/batchnorm_1/add_1/conv","resnet_v1_50/block1/unit_3/bottleneck_v1/conv3/Conv2D_bias"],"attr":{"data_format":{"s":"TkhXQw=="},"T":{"type":"DT_FLOAT"}}},{"name":"resnet_v1_50/block1/unit_3/bottleneck_v1/add","op":"Add","input":["resnet_v1_50/block1/unit_3/bottleneck_v1/conv3/BatchNorm/batchnorm_1/add_1","resnet_v1_50/block1/unit_3/bottleneck_v1/shortcut/MaxPool"],"attr":{"T":{"type":"DT_FLOAT"}}},{"name":"resnet_v1_50/block1/unit_3/bottleneck_v1/Relu","op":"Relu","input":["resnet_v1_50/block1/unit_3/bottleneck_v1/add"],"attr":{"T":{"type":"DT_FLOAT"}}},{"name":"resnet_v1_50/block2/unit_1/bottleneck_v1/shortcut/BatchNorm/batchnorm_1/add_1/conv","op":"Conv2D","input":["resnet_v1_50/block1/unit_3/bottleneck_v1/Relu","resnet_v1_50/block2/unit_1/bottleneck_v1/shortcut/weights"],"attr":{"dilations":{"list":{"i":["1","1","1","1"]}},"T":{"type":"DT_FLOAT"},"data_format":{"s":"TkhXQw=="},"strides":{"list":{"i":["1","1","1","1"]}},"use_cudnn_on_gpu":{"b":true},"explicit_paddings":{"list":{}},"padding":{"s":"U0FNRQ=="}}},{"name":"resnet_v1_50/block2/unit_1/bottleneck_v1/conv1/BatchNorm/batchnorm_1/add_1/conv","op":"Conv2D","input":["resnet_v1_50/block1/unit_3/bottleneck_v1/Relu","resnet_v1_50/block2/unit_1/bottleneck_v1/conv1/weights"],"attr":{"dilations":{"list":{"i":["1","1","1","1"]}},"T":{"type":"DT_FLOAT"},"strides":{"list":{"i":["1","1","1","1"]}},"data_format":{"s":"TkhXQw=="},"use_cudnn_on_gpu":{"b":true},"explicit_paddings":{"list":{}},"padding":{"s":"U0FNRQ=="}}},{"name":"resnet_v1_50/block2/unit_1/bottleneck_v1/shortcut/BatchNorm/batchnorm_1/add_1","op":"BiasAdd","input":["resnet_v1_50/block2/unit_1/bottleneck_v1/shortcut/BatchNorm/batchnorm_1/add_1/conv","resnet_v1_50/block2/unit_1/bottleneck_v1/shortcut/Conv2D_bias"],"attr":{"T":{"type":"DT_FLOAT"},"data_format":{"s":"TkhXQw=="}}},{"name":"resnet_v1_50/block2/unit_1/bottleneck_v1/conv1/BatchNorm/batchnorm_1/add_1","op":"BiasAdd","input":["resnet_v1_50/block2/unit_1/bottleneck_v1/conv1/BatchNorm/batchnorm_1/add_1/conv","resnet_v1_50/block2/unit_1/bottleneck_v1/conv1/Conv2D_bias"],"attr":{"data_format":{"s":"TkhXQw=="},"T":{"type":"DT_FLOAT"}}},{"name":"resnet_v1_50/block2/unit_1/bottleneck_v1/conv1/Relu","op":"Relu","input":["resnet_v1_50/block2/unit_1/bottleneck_v1/conv1/BatchNorm/batchnorm_1/add_1"],"attr":{"T":{"type":"DT_FLOAT"}}},{"name":"resnet_v1_50/block2/unit_1/bottleneck_v1/conv2/BatchNorm/batchnorm_1/add_1/conv","op":"Conv2D","input":["resnet_v1_50/block2/unit_1/bottleneck_v1/conv1/Relu","resnet_v1_50/block2/unit_1/bottleneck_v1/conv2/weights"],"attr":{"dilations":{"list":{"i":["1","1","1","1"]}},"T":{"type":"DT_FLOAT"},"strides":{"list":{"i":["1","1","1","1"]}},"data_format":{"s":"TkhXQw=="},"explicit_paddings":{"list":{}},"use_cudnn_on_gpu":{"b":true},"padding":{"s":"U0FNRQ=="}}},{"name":"resnet_v1_50/block2/unit_1/bottleneck_v1/conv2/BatchNorm/batchnorm_1/add_1","op":"BiasAdd","input":["resnet_v1_50/block2/unit_1/bottleneck_v1/conv2/BatchNorm/batchnorm_1/add_1/conv","resnet_v1_50/block2/unit_1/bottleneck_v1/conv2/Conv2D_bias"],"attr":{"T":{"type":"DT_FLOAT"},"data_format":{"s":"TkhXQw=="}}},{"name":"resnet_v1_50/block2/unit_1/bottleneck_v1/conv2/Relu","op":"Relu","input":["resnet_v1_50/block2/unit_1/bottleneck_v1/conv2/BatchNorm/batchnorm_1/add_1"],"attr":{"T":{"type":"DT_FLOAT"}}},{"name":"resnet_v1_50/block2/unit_1/bottleneck_v1/conv3/BatchNorm/batchnorm_1/add_1/conv","op":"Conv2D","input":["resnet_v1_50/block2/unit_1/bottleneck_v1/conv2/Relu","resnet_v1_50/block2/unit_1/bottleneck_v1/conv3/weights"],"attr":{"use_cudnn_on_gpu":{"b":true},"explicit_paddings":{"list":{}},"padding":{"s":"U0FNRQ=="},"dilations":{"list":{"i":["1","1","1","1"]}},"T":{"type":"DT_FLOAT"},"strides":{"list":{"i":["1","1","1","1"]}},"data_format":{"s":"TkhXQw=="}}},{"name":"resnet_v1_50/block2/unit_1/bottleneck_v1/conv3/BatchNorm/batchnorm_1/add_1","op":"BiasAdd","input":["resnet_v1_50/block2/unit_1/bottleneck_v1/conv3/BatchNorm/batchnorm_1/add_1/conv","resnet_v1_50/block2/unit_1/bottleneck_v1/conv3/Conv2D_bias"],"attr":{"T":{"type":"DT_FLOAT"},"data_format":{"s":"TkhXQw=="}}},{"name":"resnet_v1_50/block2/unit_1/bottleneck_v1/add","op":"Add","input":["resnet_v1_50/block2/unit_1/bottleneck_v1/conv3/BatchNorm/batchnorm_1/add_1","resnet_v1_50/block2/unit_1/bottleneck_v1/shortcut/BatchNorm/batchnorm_1/add_1"],"attr":{"T":{"type":"DT_FLOAT"}}},{"name":"resnet_v1_50/block2/unit_1/bottleneck_v1/Relu","op":"Relu","input":["resnet_v1_50/block2/unit_1/bottleneck_v1/add"],"attr":{"T":{"type":"DT_FLOAT"}}},{"name":"resnet_v1_50/block2/unit_2/bottleneck_v1/conv1/BatchNorm/batchnorm_1/add_1/conv","op":"Conv2D","input":["resnet_v1_50/block2/unit_1/bottleneck_v1/Relu","resnet_v1_50/block2/unit_2/bottleneck_v1/conv1/weights"],"attr":{"dilations":{"list":{"i":["1","1","1","1"]}},"T":{"type":"DT_FLOAT"},"data_format":{"s":"TkhXQw=="},"strides":{"list":{"i":["1","1","1","1"]}},"use_cudnn_on_gpu":{"b":true},"explicit_paddings":{"list":{}},"padding":{"s":"U0FNRQ=="}}},{"name":"resnet_v1_50/block2/unit_2/bottleneck_v1/conv1/BatchNorm/batchnorm_1/add_1","op":"BiasAdd","input":["resnet_v1_50/block2/unit_2/bottleneck_v1/conv1/BatchNorm/batchnorm_1/add_1/conv","resnet_v1_50/block2/unit_2/bottleneck_v1/conv1/Conv2D_bias"],"attr":{"T":{"type":"DT_FLOAT"},"data_format":{"s":"TkhXQw=="}}},{"name":"resnet_v1_50/block2/unit_2/bottleneck_v1/conv1/Relu","op":"Relu","input":["resnet_v1_50/block2/unit_2/bottleneck_v1/conv1/BatchNorm/batchnorm_1/add_1"],"attr":{"T":{"type":"DT_FLOAT"}}},{"name":"resnet_v1_50/block2/unit_2/bottleneck_v1/conv2/BatchNorm/batchnorm_1/add_1/conv","op":"Conv2D","input":["resnet_v1_50/block2/unit_2/bottleneck_v1/conv1/Relu","resnet_v1_50/block2/unit_2/bottleneck_v1/conv2/weights"],"attr":{"dilations":{"list":{"i":["1","1","1","1"]}},"T":{"type":"DT_FLOAT"},"data_format":{"s":"TkhXQw=="},"strides":{"list":{"i":["1","1","1","1"]}},"explicit_paddings":{"list":{}},"use_cudnn_on_gpu":{"b":true},"padding":{"s":"U0FNRQ=="}}},{"name":"resnet_v1_50/block2/unit_2/bottleneck_v1/conv2/BatchNorm/batchnorm_1/add_1","op":"BiasAdd","input":["resnet_v1_50/block2/unit_2/bottleneck_v1/conv2/BatchNorm/batchnorm_1/add_1/conv","resnet_v1_50/block2/unit_2/bottleneck_v1/conv2/Conv2D_bias"],"attr":{"T":{"type":"DT_FLOAT"},"data_format":{"s":"TkhXQw=="}}},{"name":"resnet_v1_50/block2/unit_2/bottleneck_v1/conv2/Relu","op":"Relu","input":["resnet_v1_50/block2/unit_2/bottleneck_v1/conv2/BatchNorm/batchnorm_1/add_1"],"attr":{"T":{"type":"DT_FLOAT"}}},{"name":"resnet_v1_50/block2/unit_2/bottleneck_v1/conv3/BatchNorm/batchnorm_1/add_1/conv","op":"Conv2D","input":["resnet_v1_50/block2/unit_2/bottleneck_v1/conv2/Relu","resnet_v1_50/block2/unit_2/bottleneck_v1/conv3/weights"],"attr":{"strides":{"list":{"i":["1","1","1","1"]}},"data_format":{"s":"TkhXQw=="},"explicit_paddings":{"list":{}},"use_cudnn_on_gpu":{"b":true},"padding":{"s":"U0FNRQ=="},"dilations":{"list":{"i":["1","1","1","1"]}},"T":{"type":"DT_FLOAT"}}},{"name":"resnet_v1_50/block2/unit_2/bottleneck_v1/conv3/BatchNorm/batchnorm_1/add_1","op":"BiasAdd","input":["resnet_v1_50/block2/unit_2/bottleneck_v1/conv3/BatchNorm/batchnorm_1/add_1/conv","resnet_v1_50/block2/unit_2/bottleneck_v1/conv3/Conv2D_bias"],"attr":{"T":{"type":"DT_FLOAT"},"data_format":{"s":"TkhXQw=="}}},{"name":"resnet_v1_50/block2/unit_2/bottleneck_v1/add","op":"Add","input":["resnet_v1_50/block2/unit_1/bottleneck_v1/Relu","resnet_v1_50/block2/unit_2/bottleneck_v1/conv3/BatchNorm/batchnorm_1/add_1"],"attr":{"T":{"type":"DT_FLOAT"}}},{"name":"resnet_v1_50/block2/unit_2/bottleneck_v1/Relu","op":"Relu","input":["resnet_v1_50/block2/unit_2/bottleneck_v1/add"],"attr":{"T":{"type":"DT_FLOAT"}}},{"name":"resnet_v1_50/block2/unit_3/bottleneck_v1/conv1/BatchNorm/batchnorm_1/add_1/conv","op":"Conv2D","input":["resnet_v1_50/block2/unit_2/bottleneck_v1/Relu","resnet_v1_50/block2/unit_3/bottleneck_v1/conv1/weights"],"attr":{"data_format":{"s":"TkhXQw=="},"strides":{"list":{"i":["1","1","1","1"]}},"explicit_paddings":{"list":{}},"use_cudnn_on_gpu":{"b":true},"padding":{"s":"U0FNRQ=="},"dilations":{"list":{"i":["1","1","1","1"]}},"T":{"type":"DT_FLOAT"}}},{"name":"resnet_v1_50/block2/unit_3/bottleneck_v1/conv1/BatchNorm/batchnorm_1/add_1","op":"BiasAdd","input":["resnet_v1_50/block2/unit_3/bottleneck_v1/conv1/BatchNorm/batchnorm_1/add_1/conv","resnet_v1_50/block2/unit_3/bottleneck_v1/conv1/Conv2D_bias"],"attr":{"T":{"type":"DT_FLOAT"},"data_format":{"s":"TkhXQw=="}}},{"name":"resnet_v1_50/block2/unit_3/bottleneck_v1/conv1/Relu","op":"Relu","input":["resnet_v1_50/block2/unit_3/bottleneck_v1/conv1/BatchNorm/batchnorm_1/add_1"],"attr":{"T":{"type":"DT_FLOAT"}}},{"name":"resnet_v1_50/block2/unit_3/bottleneck_v1/conv2/BatchNorm/batchnorm_1/add_1/conv","op":"Conv2D","input":["resnet_v1_50/block2/unit_3/bottleneck_v1/conv1/Relu","resnet_v1_50/block2/unit_3/bottleneck_v1/conv2/weights"],"attr":{"padding":{"s":"U0FNRQ=="},"dilations":{"list":{"i":["1","1","1","1"]}},"T":{"type":"DT_FLOAT"},"data_format":{"s":"TkhXQw=="},"strides":{"list":{"i":["1","1","1","1"]}},"use_cudnn_on_gpu":{"b":true},"explicit_paddings":{"list":{}}}},{"name":"resnet_v1_50/block2/unit_3/bottleneck_v1/conv2/BatchNorm/batchnorm_1/add_1","op":"BiasAdd","input":["resnet_v1_50/block2/unit_3/bottleneck_v1/conv2/BatchNorm/batchnorm_1/add_1/conv","resnet_v1_50/block2/unit_3/bottleneck_v1/conv2/Conv2D_bias"],"attr":{"T":{"type":"DT_FLOAT"},"data_format":{"s":"TkhXQw=="}}},{"name":"resnet_v1_50/block2/unit_3/bottleneck_v1/conv2/Relu","op":"Relu","input":["resnet_v1_50/block2/unit_3/bottleneck_v1/conv2/BatchNorm/batchnorm_1/add_1"],"attr":{"T":{"type":"DT_FLOAT"}}},{"name":"resnet_v1_50/block2/unit_3/bottleneck_v1/conv3/BatchNorm/batchnorm_1/add_1/conv","op":"Conv2D","input":["resnet_v1_50/block2/unit_3/bottleneck_v1/conv2/Relu","resnet_v1_50/block2/unit_3/bottleneck_v1/conv3/weights"],"attr":{"use_cudnn_on_gpu":{"b":true},"explicit_paddings":{"list":{}},"padding":{"s":"U0FNRQ=="},"dilations":{"list":{"i":["1","1","1","1"]}},"T":{"type":"DT_FLOAT"},"strides":{"list":{"i":["1","1","1","1"]}},"data_format":{"s":"TkhXQw=="}}},{"name":"resnet_v1_50/block2/unit_3/bottleneck_v1/conv3/BatchNorm/batchnorm_1/add_1","op":"BiasAdd","input":["resnet_v1_50/block2/unit_3/bottleneck_v1/conv3/BatchNorm/batchnorm_1/add_1/conv","resnet_v1_50/block2/unit_3/bottleneck_v1/conv3/Conv2D_bias"],"attr":{"data_format":{"s":"TkhXQw=="},"T":{"type":"DT_FLOAT"}}},{"name":"resnet_v1_50/block2/unit_3/bottleneck_v1/add","op":"Add","input":["resnet_v1_50/block2/unit_2/bottleneck_v1/Relu","resnet_v1_50/block2/unit_3/bottleneck_v1/conv3/BatchNorm/batchnorm_1/add_1"],"attr":{"T":{"type":"DT_FLOAT"}}},{"name":"resnet_v1_50/block2/unit_3/bottleneck_v1/Relu","op":"Relu","input":["resnet_v1_50/block2/unit_3/bottleneck_v1/add"],"attr":{"T":{"type":"DT_FLOAT"}}},{"name":"resnet_v1_50/block2/unit_4/bottleneck_v1/shortcut/MaxPool","op":"MaxPool","input":["resnet_v1_50/block2/unit_3/bottleneck_v1/Relu"],"attr":{"ksize":{"list":{"i":["1","1","1","1"]}},"padding":{"s":"U0FNRQ=="},"T":{"type":"DT_FLOAT"},"data_format":{"s":"TkhXQw=="},"strides":{"list":{"i":["1","2","2","1"]}}}},{"name":"resnet_v1_50/block2/unit_4/bottleneck_v1/conv1/BatchNorm/batchnorm_1/add_1/conv","op":"Conv2D","input":["resnet_v1_50/block2/unit_3/bottleneck_v1/Relu","resnet_v1_50/block2/unit_4/bottleneck_v1/conv1/weights"],"attr":{"dilations":{"list":{"i":["1","1","1","1"]}},"T":{"type":"DT_FLOAT"},"data_format":{"s":"TkhXQw=="},"strides":{"list":{"i":["1","1","1","1"]}},"explicit_paddings":{"list":{}},"use_cudnn_on_gpu":{"b":true},"padding":{"s":"U0FNRQ=="}}},{"name":"resnet_v1_50/block2/unit_4/bottleneck_v1/conv1/BatchNorm/batchnorm_1/add_1","op":"BiasAdd","input":["resnet_v1_50/block2/unit_4/bottleneck_v1/conv1/BatchNorm/batchnorm_1/add_1/conv","resnet_v1_50/block2/unit_4/bottleneck_v1/conv1/Conv2D_bias"],"attr":{"T":{"type":"DT_FLOAT"},"data_format":{"s":"TkhXQw=="}}},{"name":"resnet_v1_50/block2/unit_4/bottleneck_v1/conv1/Relu","op":"Relu","input":["resnet_v1_50/block2/unit_4/bottleneck_v1/conv1/BatchNorm/batchnorm_1/add_1"],"attr":{"T":{"type":"DT_FLOAT"}}},{"name":"resnet_v1_50/block2/unit_4/bottleneck_v1/Pad","op":"Pad","input":["resnet_v1_50/block2/unit_4/bottleneck_v1/conv1/Relu","resnet_v1_50/Pad_1/paddings"],"attr":{"T":{"type":"DT_FLOAT"},"Tpaddings":{"type":"DT_INT32"}}},{"name":"resnet_v1_50/block2/unit_4/bottleneck_v1/conv2/BatchNorm/batchnorm_1/add_1/conv","op":"Conv2D","input":["resnet_v1_50/block2/unit_4/bottleneck_v1/Pad","resnet_v1_50/block2/unit_4/bottleneck_v1/conv2/weights"],"attr":{"padding":{"s":"VkFMSUQ="},"dilations":{"list":{"i":["1","1","1","1"]}},"T":{"type":"DT_FLOAT"},"data_format":{"s":"TkhXQw=="},"strides":{"list":{"i":["1","2","2","1"]}},"use_cudnn_on_gpu":{"b":true},"explicit_paddings":{"list":{}}}},{"name":"resnet_v1_50/block2/unit_4/bottleneck_v1/conv2/BatchNorm/batchnorm_1/add_1","op":"BiasAdd","input":["resnet_v1_50/block2/unit_4/bottleneck_v1/conv2/BatchNorm/batchnorm_1/add_1/conv","resnet_v1_50/block2/unit_4/bottleneck_v1/conv2/Conv2D_bias"],"attr":{"T":{"type":"DT_FLOAT"},"data_format":{"s":"TkhXQw=="}}},{"name":"resnet_v1_50/block2/unit_4/bottleneck_v1/conv2/Relu","op":"Relu","input":["resnet_v1_50/block2/unit_4/bottleneck_v1/conv2/BatchNorm/batchnorm_1/add_1"],"attr":{"T":{"type":"DT_FLOAT"}}},{"name":"resnet_v1_50/block2/unit_4/bottleneck_v1/conv3/BatchNorm/batchnorm_1/add_1/conv","op":"Conv2D","input":["resnet_v1_50/block2/unit_4/bottleneck_v1/conv2/Relu","resnet_v1_50/block2/unit_4/bottleneck_v1/conv3/weights"],"attr":{"padding":{"s":"U0FNRQ=="},"dilations":{"list":{"i":["1","1","1","1"]}},"T":{"type":"DT_FLOAT"},"data_format":{"s":"TkhXQw=="},"strides":{"list":{"i":["1","1","1","1"]}},"explicit_paddings":{"list":{}},"use_cudnn_on_gpu":{"b":true}}},{"name":"resnet_v1_50/block2/unit_4/bottleneck_v1/conv3/BatchNorm/batchnorm_1/add_1","op":"BiasAdd","input":["resnet_v1_50/block2/unit_4/bottleneck_v1/conv3/BatchNorm/batchnorm_1/add_1/conv","resnet_v1_50/block2/unit_4/bottleneck_v1/conv3/Conv2D_bias"],"attr":{"T":{"type":"DT_FLOAT"},"data_format":{"s":"TkhXQw=="}}},{"name":"resnet_v1_50/block2/unit_4/bottleneck_v1/add","op":"Add","input":["resnet_v1_50/block2/unit_4/bottleneck_v1/conv3/BatchNorm/batchnorm_1/add_1","resnet_v1_50/block2/unit_4/bottleneck_v1/shortcut/MaxPool"],"attr":{"T":{"type":"DT_FLOAT"}}},{"name":"resnet_v1_50/block2/unit_4/bottleneck_v1/Relu","op":"Relu","input":["resnet_v1_50/block2/unit_4/bottleneck_v1/add"],"attr":{"T":{"type":"DT_FLOAT"}}},{"name":"resnet_v1_50/block3/unit_1/bottleneck_v1/shortcut/BatchNorm/batchnorm_1/add_1/conv","op":"Conv2D","input":["resnet_v1_50/block2/unit_4/bottleneck_v1/Relu","resnet_v1_50/block3/unit_1/bottleneck_v1/shortcut/weights"],"attr":{"dilations":{"list":{"i":["1","1","1","1"]}},"T":{"type":"DT_FLOAT"},"strides":{"list":{"i":["1","1","1","1"]}},"data_format":{"s":"TkhXQw=="},"use_cudnn_on_gpu":{"b":true},"explicit_paddings":{"list":{}},"padding":{"s":"U0FNRQ=="}}},{"name":"resnet_v1_50/block3/unit_1/bottleneck_v1/conv1/BatchNorm/batchnorm_1/add_1/conv","op":"Conv2D","input":["resnet_v1_50/block2/unit_4/bottleneck_v1/Relu","resnet_v1_50/block3/unit_1/bottleneck_v1/conv1/weights"],"attr":{"strides":{"list":{"i":["1","1","1","1"]}},"data_format":{"s":"TkhXQw=="},"use_cudnn_on_gpu":{"b":true},"explicit_paddings":{"list":{}},"padding":{"s":"U0FNRQ=="},"dilations":{"list":{"i":["1","1","1","1"]}},"T":{"type":"DT_FLOAT"}}},{"name":"resnet_v1_50/block3/unit_1/bottleneck_v1/shortcut/BatchNorm/batchnorm_1/add_1","op":"BiasAdd","input":["resnet_v1_50/block3/unit_1/bottleneck_v1/shortcut/BatchNorm/batchnorm_1/add_1/conv","resnet_v1_50/block3/unit_1/bottleneck_v1/shortcut/Conv2D_bias"],"attr":{"data_format":{"s":"TkhXQw=="},"T":{"type":"DT_FLOAT"}}},{"name":"resnet_v1_50/block3/unit_1/bottleneck_v1/conv1/BatchNorm/batchnorm_1/add_1","op":"BiasAdd","input":["resnet_v1_50/block3/unit_1/bottleneck_v1/conv1/BatchNorm/batchnorm_1/add_1/conv","resnet_v1_50/block3/unit_1/bottleneck_v1/conv1/Conv2D_bias"],"attr":{"data_format":{"s":"TkhXQw=="},"T":{"type":"DT_FLOAT"}}},{"name":"resnet_v1_50/block3/unit_1/bottleneck_v1/conv1/Relu","op":"Relu","input":["resnet_v1_50/block3/unit_1/bottleneck_v1/conv1/BatchNorm/batchnorm_1/add_1"],"attr":{"T":{"type":"DT_FLOAT"}}},{"name":"resnet_v1_50/block3/unit_1/bottleneck_v1/conv2/BatchNorm/batchnorm_1/add_1/conv","op":"Conv2D","input":["resnet_v1_50/block3/unit_1/bottleneck_v1/conv1/Relu","resnet_v1_50/block3/unit_1/bottleneck_v1/conv2/weights"],"attr":{"dilations":{"list":{"i":["1","1","1","1"]}},"T":{"type":"DT_FLOAT"},"strides":{"list":{"i":["1","1","1","1"]}},"data_format":{"s":"TkhXQw=="},"use_cudnn_on_gpu":{"b":true},"explicit_paddings":{"list":{}},"padding":{"s":"U0FNRQ=="}}},{"name":"resnet_v1_50/block3/unit_1/bottleneck_v1/conv2/BatchNorm/batchnorm_1/add_1","op":"BiasAdd","input":["resnet_v1_50/block3/unit_1/bottleneck_v1/conv2/BatchNorm/batchnorm_1/add_1/conv","resnet_v1_50/block3/unit_1/bottleneck_v1/conv2/Conv2D_bias"],"attr":{"T":{"type":"DT_FLOAT"},"data_format":{"s":"TkhXQw=="}}},{"name":"resnet_v1_50/block3/unit_1/bottleneck_v1/conv2/Relu","op":"Relu","input":["resnet_v1_50/block3/unit_1/bottleneck_v1/conv2/BatchNorm/batchnorm_1/add_1"],"attr":{"T":{"type":"DT_FLOAT"}}},{"name":"resnet_v1_50/block3/unit_1/bottleneck_v1/conv3/BatchNorm/batchnorm_1/add_1/conv","op":"Conv2D","input":["resnet_v1_50/block3/unit_1/bottleneck_v1/conv2/Relu","resnet_v1_50/block3/unit_1/bottleneck_v1/conv3/weights"],"attr":{"data_format":{"s":"TkhXQw=="},"strides":{"list":{"i":["1","1","1","1"]}},"use_cudnn_on_gpu":{"b":true},"explicit_paddings":{"list":{}},"padding":{"s":"U0FNRQ=="},"dilations":{"list":{"i":["1","1","1","1"]}},"T":{"type":"DT_FLOAT"}}},{"name":"resnet_v1_50/block3/unit_1/bottleneck_v1/conv3/BatchNorm/batchnorm_1/add_1","op":"BiasAdd","input":["resnet_v1_50/block3/unit_1/bottleneck_v1/conv3/BatchNorm/batchnorm_1/add_1/conv","resnet_v1_50/block3/unit_1/bottleneck_v1/conv3/Conv2D_bias"],"attr":{"T":{"type":"DT_FLOAT"},"data_format":{"s":"TkhXQw=="}}},{"name":"resnet_v1_50/block3/unit_1/bottleneck_v1/add","op":"Add","input":["resnet_v1_50/block3/unit_1/bottleneck_v1/conv3/BatchNorm/batchnorm_1/add_1","resnet_v1_50/block3/unit_1/bottleneck_v1/shortcut/BatchNorm/batchnorm_1/add_1"],"attr":{"T":{"type":"DT_FLOAT"}}},{"name":"resnet_v1_50/block3/unit_1/bottleneck_v1/Relu","op":"Relu","input":["resnet_v1_50/block3/unit_1/bottleneck_v1/add"],"attr":{"T":{"type":"DT_FLOAT"}}},{"name":"resnet_v1_50/block3/unit_2/bottleneck_v1/conv1/BatchNorm/batchnorm_1/add_1/conv","op":"Conv2D","input":["resnet_v1_50/block3/unit_1/bottleneck_v1/Relu","resnet_v1_50/block3/unit_2/bottleneck_v1/conv1/weights"],"attr":{"data_format":{"s":"TkhXQw=="},"strides":{"list":{"i":["1","1","1","1"]}},"explicit_paddings":{"list":{}},"use_cudnn_on_gpu":{"b":true},"padding":{"s":"U0FNRQ=="},"dilations":{"list":{"i":["1","1","1","1"]}},"T":{"type":"DT_FLOAT"}}},{"name":"resnet_v1_50/block3/unit_2/bottleneck_v1/conv1/BatchNorm/batchnorm_1/add_1","op":"BiasAdd","input":["resnet_v1_50/block3/unit_2/bottleneck_v1/conv1/BatchNorm/batchnorm_1/add_1/conv","resnet_v1_50/block3/unit_2/bottleneck_v1/conv1/Conv2D_bias"],"attr":{"T":{"type":"DT_FLOAT"},"data_format":{"s":"TkhXQw=="}}},{"name":"resnet_v1_50/block3/unit_2/bottleneck_v1/conv1/Relu","op":"Relu","input":["resnet_v1_50/block3/unit_2/bottleneck_v1/conv1/BatchNorm/batchnorm_1/add_1"],"attr":{"T":{"type":"DT_FLOAT"}}},{"name":"resnet_v1_50/block3/unit_2/bottleneck_v1/conv2/BatchNorm/batchnorm_1/add_1/conv","op":"Conv2D","input":["resnet_v1_50/block3/unit_2/bottleneck_v1/conv1/Relu","resnet_v1_50/block3/unit_2/bottleneck_v1/conv2/weights"],"attr":{"strides":{"list":{"i":["1","1","1","1"]}},"data_format":{"s":"TkhXQw=="},"use_cudnn_on_gpu":{"b":true},"explicit_paddings":{"list":{}},"padding":{"s":"U0FNRQ=="},"dilations":{"list":{"i":["1","1","1","1"]}},"T":{"type":"DT_FLOAT"}}},{"name":"resnet_v1_50/block3/unit_2/bottleneck_v1/conv2/BatchNorm/batchnorm_1/add_1","op":"BiasAdd","input":["resnet_v1_50/block3/unit_2/bottleneck_v1/conv2/BatchNorm/batchnorm_1/add_1/conv","resnet_v1_50/block3/unit_2/bottleneck_v1/conv2/Conv2D_bias"],"attr":{"T":{"type":"DT_FLOAT"},"data_format":{"s":"TkhXQw=="}}},{"name":"resnet_v1_50/block3/unit_2/bottleneck_v1/conv2/Relu","op":"Relu","input":["resnet_v1_50/block3/unit_2/bottleneck_v1/conv2/BatchNorm/batchnorm_1/add_1"],"attr":{"T":{"type":"DT_FLOAT"}}},{"name":"resnet_v1_50/block3/unit_2/bottleneck_v1/conv3/BatchNorm/batchnorm_1/add_1/conv","op":"Conv2D","input":["resnet_v1_50/block3/unit_2/bottleneck_v1/conv2/Relu","resnet_v1_50/block3/unit_2/bottleneck_v1/conv3/weights"],"attr":{"dilations":{"list":{"i":["1","1","1","1"]}},"T":{"type":"DT_FLOAT"},"data_format":{"s":"TkhXQw=="},"strides":{"list":{"i":["1","1","1","1"]}},"use_cudnn_on_gpu":{"b":true},"explicit_paddings":{"list":{}},"padding":{"s":"U0FNRQ=="}}},{"name":"resnet_v1_50/block3/unit_2/bottleneck_v1/conv3/BatchNorm/batchnorm_1/add_1","op":"BiasAdd","input":["resnet_v1_50/block3/unit_2/bottleneck_v1/conv3/BatchNorm/batchnorm_1/add_1/conv","resnet_v1_50/block3/unit_2/bottleneck_v1/conv3/Conv2D_bias"],"attr":{"T":{"type":"DT_FLOAT"},"data_format":{"s":"TkhXQw=="}}},{"name":"resnet_v1_50/block3/unit_2/bottleneck_v1/add","op":"Add","input":["resnet_v1_50/block3/unit_1/bottleneck_v1/Relu","resnet_v1_50/block3/unit_2/bottleneck_v1/conv3/BatchNorm/batchnorm_1/add_1"],"attr":{"T":{"type":"DT_FLOAT"}}},{"name":"resnet_v1_50/block3/unit_2/bottleneck_v1/Relu","op":"Relu","input":["resnet_v1_50/block3/unit_2/bottleneck_v1/add"],"attr":{"T":{"type":"DT_FLOAT"}}},{"name":"resnet_v1_50/block3/unit_3/bottleneck_v1/conv1/BatchNorm/batchnorm_1/add_1/conv","op":"Conv2D","input":["resnet_v1_50/block3/unit_2/bottleneck_v1/Relu","resnet_v1_50/block3/unit_3/bottleneck_v1/conv1/weights"],"attr":{"padding":{"s":"U0FNRQ=="},"dilations":{"list":{"i":["1","1","1","1"]}},"T":{"type":"DT_FLOAT"},"data_format":{"s":"TkhXQw=="},"strides":{"list":{"i":["1","1","1","1"]}},"use_cudnn_on_gpu":{"b":true},"explicit_paddings":{"list":{}}}},{"name":"resnet_v1_50/block3/unit_3/bottleneck_v1/conv1/BatchNorm/batchnorm_1/add_1","op":"BiasAdd","input":["resnet_v1_50/block3/unit_3/bottleneck_v1/conv1/BatchNorm/batchnorm_1/add_1/conv","resnet_v1_50/block3/unit_3/bottleneck_v1/conv1/Conv2D_bias"],"attr":{"T":{"type":"DT_FLOAT"},"data_format":{"s":"TkhXQw=="}}},{"name":"resnet_v1_50/block3/unit_3/bottleneck_v1/conv1/Relu","op":"Relu","input":["resnet_v1_50/block3/unit_3/bottleneck_v1/conv1/BatchNorm/batchnorm_1/add_1"],"attr":{"T":{"type":"DT_FLOAT"}}},{"name":"resnet_v1_50/block3/unit_3/bottleneck_v1/conv2/BatchNorm/batchnorm_1/add_1/conv","op":"Conv2D","input":["resnet_v1_50/block3/unit_3/bottleneck_v1/conv1/Relu","resnet_v1_50/block3/unit_3/bottleneck_v1/conv2/weights"],"attr":{"dilations":{"list":{"i":["1","1","1","1"]}},"T":{"type":"DT_FLOAT"},"strides":{"list":{"i":["1","1","1","1"]}},"data_format":{"s":"TkhXQw=="},"use_cudnn_on_gpu":{"b":true},"explicit_paddings":{"list":{}},"padding":{"s":"U0FNRQ=="}}},{"name":"resnet_v1_50/block3/unit_3/bottleneck_v1/conv2/BatchNorm/batchnorm_1/add_1","op":"BiasAdd","input":["resnet_v1_50/block3/unit_3/bottleneck_v1/conv2/BatchNorm/batchnorm_1/add_1/conv","resnet_v1_50/block3/unit_3/bottleneck_v1/conv2/Conv2D_bias"],"attr":{"T":{"type":"DT_FLOAT"},"data_format":{"s":"TkhXQw=="}}},{"name":"resnet_v1_50/block3/unit_3/bottleneck_v1/conv2/Relu","op":"Relu","input":["resnet_v1_50/block3/unit_3/bottleneck_v1/conv2/BatchNorm/batchnorm_1/add_1"],"attr":{"T":{"type":"DT_FLOAT"}}},{"name":"resnet_v1_50/block3/unit_3/bottleneck_v1/conv3/BatchNorm/batchnorm_1/add_1/conv","op":"Conv2D","input":["resnet_v1_50/block3/unit_3/bottleneck_v1/conv2/Relu","resnet_v1_50/block3/unit_3/bottleneck_v1/conv3/weights"],"attr":{"T":{"type":"DT_FLOAT"},"strides":{"list":{"i":["1","1","1","1"]}},"data_format":{"s":"TkhXQw=="},"use_cudnn_on_gpu":{"b":true},"explicit_paddings":{"list":{}},"padding":{"s":"U0FNRQ=="},"dilations":{"list":{"i":["1","1","1","1"]}}}},{"name":"resnet_v1_50/block3/unit_3/bottleneck_v1/conv3/BatchNorm/batchnorm_1/add_1","op":"BiasAdd","input":["resnet_v1_50/block3/unit_3/bottleneck_v1/conv3/BatchNorm/batchnorm_1/add_1/conv","resnet_v1_50/block3/unit_3/bottleneck_v1/conv3/Conv2D_bias"],"attr":{"T":{"type":"DT_FLOAT"},"data_format":{"s":"TkhXQw=="}}},{"name":"resnet_v1_50/block3/unit_3/bottleneck_v1/add","op":"Add","input":["resnet_v1_50/block3/unit_2/bottleneck_v1/Relu","resnet_v1_50/block3/unit_3/bottleneck_v1/conv3/BatchNorm/batchnorm_1/add_1"],"attr":{"T":{"type":"DT_FLOAT"}}},{"name":"resnet_v1_50/block3/unit_3/bottleneck_v1/Relu","op":"Relu","input":["resnet_v1_50/block3/unit_3/bottleneck_v1/add"],"attr":{"T":{"type":"DT_FLOAT"}}},{"name":"resnet_v1_50/block3/unit_4/bottleneck_v1/conv1/BatchNorm/batchnorm_1/add_1/conv","op":"Conv2D","input":["resnet_v1_50/block3/unit_3/bottleneck_v1/Relu","resnet_v1_50/block3/unit_4/bottleneck_v1/conv1/weights"],"attr":{"dilations":{"list":{"i":["1","1","1","1"]}},"T":{"type":"DT_FLOAT"},"data_format":{"s":"TkhXQw=="},"strides":{"list":{"i":["1","1","1","1"]}},"use_cudnn_on_gpu":{"b":true},"explicit_paddings":{"list":{}},"padding":{"s":"U0FNRQ=="}}},{"name":"resnet_v1_50/block3/unit_4/bottleneck_v1/conv1/BatchNorm/batchnorm_1/add_1","op":"BiasAdd","input":["resnet_v1_50/block3/unit_4/bottleneck_v1/conv1/BatchNorm/batchnorm_1/add_1/conv","resnet_v1_50/block3/unit_4/bottleneck_v1/conv1/Conv2D_bias"],"attr":{"data_format":{"s":"TkhXQw=="},"T":{"type":"DT_FLOAT"}}},{"name":"resnet_v1_50/block3/unit_4/bottleneck_v1/conv1/Relu","op":"Relu","input":["resnet_v1_50/block3/unit_4/bottleneck_v1/conv1/BatchNorm/batchnorm_1/add_1"],"attr":{"T":{"type":"DT_FLOAT"}}},{"name":"resnet_v1_50/block3/unit_4/bottleneck_v1/conv2/BatchNorm/batchnorm_1/add_1/conv","op":"Conv2D","input":["resnet_v1_50/block3/unit_4/bottleneck_v1/conv1/Relu","resnet_v1_50/block3/unit_4/bottleneck_v1/conv2/weights"],"attr":{"dilations":{"list":{"i":["1","1","1","1"]}},"T":{"type":"DT_FLOAT"},"strides":{"list":{"i":["1","1","1","1"]}},"data_format":{"s":"TkhXQw=="},"explicit_paddings":{"list":{}},"use_cudnn_on_gpu":{"b":true},"padding":{"s":"U0FNRQ=="}}},{"name":"resnet_v1_50/block3/unit_4/bottleneck_v1/conv2/BatchNorm/batchnorm_1/add_1","op":"BiasAdd","input":["resnet_v1_50/block3/unit_4/bottleneck_v1/conv2/BatchNorm/batchnorm_1/add_1/conv","resnet_v1_50/block3/unit_4/bottleneck_v1/conv2/Conv2D_bias"],"attr":{"T":{"type":"DT_FLOAT"},"data_format":{"s":"TkhXQw=="}}},{"name":"resnet_v1_50/block3/unit_4/bottleneck_v1/conv2/Relu","op":"Relu","input":["resnet_v1_50/block3/unit_4/bottleneck_v1/conv2/BatchNorm/batchnorm_1/add_1"],"attr":{"T":{"type":"DT_FLOAT"}}},{"name":"resnet_v1_50/block3/unit_4/bottleneck_v1/conv3/BatchNorm/batchnorm_1/add_1/conv","op":"Conv2D","input":["resnet_v1_50/block3/unit_4/bottleneck_v1/conv2/Relu","resnet_v1_50/block3/unit_4/bottleneck_v1/conv3/weights"],"attr":{"padding":{"s":"U0FNRQ=="},"dilations":{"list":{"i":["1","1","1","1"]}},"T":{"type":"DT_FLOAT"},"strides":{"list":{"i":["1","1","1","1"]}},"data_format":{"s":"TkhXQw=="},"explicit_paddings":{"list":{}},"use_cudnn_on_gpu":{"b":true}}},{"name":"resnet_v1_50/block3/unit_4/bottleneck_v1/conv3/BatchNorm/batchnorm_1/add_1","op":"BiasAdd","input":["resnet_v1_50/block3/unit_4/bottleneck_v1/conv3/BatchNorm/batchnorm_1/add_1/conv","resnet_v1_50/block3/unit_4/bottleneck_v1/conv3/Conv2D_bias"],"attr":{"T":{"type":"DT_FLOAT"},"data_format":{"s":"TkhXQw=="}}},{"name":"resnet_v1_50/block3/unit_4/bottleneck_v1/add","op":"Add","input":["resnet_v1_50/block3/unit_3/bottleneck_v1/Relu","resnet_v1_50/block3/unit_4/bottleneck_v1/conv3/BatchNorm/batchnorm_1/add_1"],"attr":{"T":{"type":"DT_FLOAT"}}},{"name":"resnet_v1_50/block3/unit_4/bottleneck_v1/Relu","op":"Relu","input":["resnet_v1_50/block3/unit_4/bottleneck_v1/add"],"attr":{"T":{"type":"DT_FLOAT"}}},{"name":"resnet_v1_50/block3/unit_5/bottleneck_v1/conv1/BatchNorm/batchnorm_1/add_1/conv","op":"Conv2D","input":["resnet_v1_50/block3/unit_4/bottleneck_v1/Relu","resnet_v1_50/block3/unit_5/bottleneck_v1/conv1/weights"],"attr":{"padding":{"s":"U0FNRQ=="},"dilations":{"list":{"i":["1","1","1","1"]}},"T":{"type":"DT_FLOAT"},"strides":{"list":{"i":["1","1","1","1"]}},"data_format":{"s":"TkhXQw=="},"explicit_paddings":{"list":{}},"use_cudnn_on_gpu":{"b":true}}},{"name":"resnet_v1_50/block3/unit_5/bottleneck_v1/conv1/BatchNorm/batchnorm_1/add_1","op":"BiasAdd","input":["resnet_v1_50/block3/unit_5/bottleneck_v1/conv1/BatchNorm/batchnorm_1/add_1/conv","resnet_v1_50/block3/unit_5/bottleneck_v1/conv1/Conv2D_bias"],"attr":{"data_format":{"s":"TkhXQw=="},"T":{"type":"DT_FLOAT"}}},{"name":"resnet_v1_50/block3/unit_5/bottleneck_v1/conv1/Relu","op":"Relu","input":["resnet_v1_50/block3/unit_5/bottleneck_v1/conv1/BatchNorm/batchnorm_1/add_1"],"attr":{"T":{"type":"DT_FLOAT"}}},{"name":"resnet_v1_50/block3/unit_5/bottleneck_v1/conv2/BatchNorm/batchnorm_1/add_1/conv","op":"Conv2D","input":["resnet_v1_50/block3/unit_5/bottleneck_v1/conv1/Relu","resnet_v1_50/block3/unit_5/bottleneck_v1/conv2/weights"],"attr":{"dilations":{"list":{"i":["1","1","1","1"]}},"T":{"type":"DT_FLOAT"},"strides":{"list":{"i":["1","1","1","1"]}},"data_format":{"s":"TkhXQw=="},"use_cudnn_on_gpu":{"b":true},"explicit_paddings":{"list":{}},"padding":{"s":"U0FNRQ=="}}},{"name":"resnet_v1_50/block3/unit_5/bottleneck_v1/conv2/BatchNorm/batchnorm_1/add_1","op":"BiasAdd","input":["resnet_v1_50/block3/unit_5/bottleneck_v1/conv2/BatchNorm/batchnorm_1/add_1/conv","resnet_v1_50/block3/unit_5/bottleneck_v1/conv2/Conv2D_bias"],"attr":{"T":{"type":"DT_FLOAT"},"data_format":{"s":"TkhXQw=="}}},{"name":"resnet_v1_50/block3/unit_5/bottleneck_v1/conv2/Relu","op":"Relu","input":["resnet_v1_50/block3/unit_5/bottleneck_v1/conv2/BatchNorm/batchnorm_1/add_1"],"attr":{"T":{"type":"DT_FLOAT"}}},{"name":"resnet_v1_50/block3/unit_5/bottleneck_v1/conv3/BatchNorm/batchnorm_1/add_1/conv","op":"Conv2D","input":["resnet_v1_50/block3/unit_5/bottleneck_v1/conv2/Relu","resnet_v1_50/block3/unit_5/bottleneck_v1/conv3/weights"],"attr":{"dilations":{"list":{"i":["1","1","1","1"]}},"T":{"type":"DT_FLOAT"},"data_format":{"s":"TkhXQw=="},"strides":{"list":{"i":["1","1","1","1"]}},"explicit_paddings":{"list":{}},"use_cudnn_on_gpu":{"b":true},"padding":{"s":"U0FNRQ=="}}},{"name":"resnet_v1_50/block3/unit_5/bottleneck_v1/conv3/BatchNorm/batchnorm_1/add_1","op":"BiasAdd","input":["resnet_v1_50/block3/unit_5/bottleneck_v1/conv3/BatchNorm/batchnorm_1/add_1/conv","resnet_v1_50/block3/unit_5/bottleneck_v1/conv3/Conv2D_bias"],"attr":{"T":{"type":"DT_FLOAT"},"data_format":{"s":"TkhXQw=="}}},{"name":"resnet_v1_50/block3/unit_5/bottleneck_v1/add","op":"Add","input":["resnet_v1_50/block3/unit_4/bottleneck_v1/Relu","resnet_v1_50/block3/unit_5/bottleneck_v1/conv3/BatchNorm/batchnorm_1/add_1"],"attr":{"T":{"type":"DT_FLOAT"}}},{"name":"resnet_v1_50/block3/unit_5/bottleneck_v1/Relu","op":"Relu","input":["resnet_v1_50/block3/unit_5/bottleneck_v1/add"],"attr":{"T":{"type":"DT_FLOAT"}}},{"name":"resnet_v1_50/block3/unit_6/bottleneck_v1/shortcut/MaxPool","op":"MaxPool","input":["resnet_v1_50/block3/unit_5/bottleneck_v1/Relu"],"attr":{"ksize":{"list":{"i":["1","1","1","1"]}},"padding":{"s":"U0FNRQ=="},"T":{"type":"DT_FLOAT"},"strides":{"list":{"i":["1","1","1","1"]}},"data_format":{"s":"TkhXQw=="}}},{"name":"resnet_v1_50/block3/unit_6/bottleneck_v1/conv1/BatchNorm/batchnorm_1/add_1/conv","op":"Conv2D","input":["resnet_v1_50/block3/unit_5/bottleneck_v1/Relu","resnet_v1_50/block3/unit_6/bottleneck_v1/conv1/weights"],"attr":{"use_cudnn_on_gpu":{"b":true},"explicit_paddings":{"list":{}},"padding":{"s":"U0FNRQ=="},"dilations":{"list":{"i":["1","1","1","1"]}},"T":{"type":"DT_FLOAT"},"strides":{"list":{"i":["1","1","1","1"]}},"data_format":{"s":"TkhXQw=="}}},{"name":"resnet_v1_50/block3/unit_6/bottleneck_v1/conv1/BatchNorm/batchnorm_1/add_1","op":"BiasAdd","input":["resnet_v1_50/block3/unit_6/bottleneck_v1/conv1/BatchNorm/batchnorm_1/add_1/conv","resnet_v1_50/block3/unit_6/bottleneck_v1/conv1/Conv2D_bias"],"attr":{"T":{"type":"DT_FLOAT"},"data_format":{"s":"TkhXQw=="}}},{"name":"resnet_v1_50/block3/unit_6/bottleneck_v1/conv1/Relu","op":"Relu","input":["resnet_v1_50/block3/unit_6/bottleneck_v1/conv1/BatchNorm/batchnorm_1/add_1"],"attr":{"T":{"type":"DT_FLOAT"}}},{"name":"resnet_v1_50/block3/unit_6/bottleneck_v1/Pad","op":"Pad","input":["resnet_v1_50/block3/unit_6/bottleneck_v1/conv1/Relu","resnet_v1_50/Pad_1/paddings"],"attr":{"Tpaddings":{"type":"DT_INT32"},"T":{"type":"DT_FLOAT"}}},{"name":"resnet_v1_50/block3/unit_6/bottleneck_v1/conv2/BatchNorm/batchnorm_1/add_1/conv","op":"Conv2D","input":["resnet_v1_50/block3/unit_6/bottleneck_v1/Pad","resnet_v1_50/block3/unit_6/bottleneck_v1/conv2/weights"],"attr":{"explicit_paddings":{"list":{}},"use_cudnn_on_gpu":{"b":true},"padding":{"s":"VkFMSUQ="},"dilations":{"list":{"i":["1","1","1","1"]}},"T":{"type":"DT_FLOAT"},"data_format":{"s":"TkhXQw=="},"strides":{"list":{"i":["1","1","1","1"]}}}},{"name":"resnet_v1_50/block3/unit_6/bottleneck_v1/conv2/BatchNorm/batchnorm_1/add_1","op":"BiasAdd","input":["resnet_v1_50/block3/unit_6/bottleneck_v1/conv2/BatchNorm/batchnorm_1/add_1/conv","resnet_v1_50/block3/unit_6/bottleneck_v1/conv2/Conv2D_bias"],"attr":{"T":{"type":"DT_FLOAT"},"data_format":{"s":"TkhXQw=="}}},{"name":"resnet_v1_50/block3/unit_6/bottleneck_v1/conv2/Relu","op":"Relu","input":["resnet_v1_50/block3/unit_6/bottleneck_v1/conv2/BatchNorm/batchnorm_1/add_1"],"attr":{"T":{"type":"DT_FLOAT"}}},{"name":"resnet_v1_50/block3/unit_6/bottleneck_v1/conv3/BatchNorm/batchnorm_1/add_1/conv","op":"Conv2D","input":["resnet_v1_50/block3/unit_6/bottleneck_v1/conv2/Relu","resnet_v1_50/block3/unit_6/bottleneck_v1/conv3/weights"],"attr":{"use_cudnn_on_gpu":{"b":true},"explicit_paddings":{"list":{}},"padding":{"s":"U0FNRQ=="},"dilations":{"list":{"i":["1","1","1","1"]}},"T":{"type":"DT_FLOAT"},"data_format":{"s":"TkhXQw=="},"strides":{"list":{"i":["1","1","1","1"]}}}},{"name":"resnet_v1_50/block3/unit_6/bottleneck_v1/conv3/BatchNorm/batchnorm_1/add_1","op":"BiasAdd","input":["resnet_v1_50/block3/unit_6/bottleneck_v1/conv3/BatchNorm/batchnorm_1/add_1/conv","resnet_v1_50/block3/unit_6/bottleneck_v1/conv3/Conv2D_bias"],"attr":{"T":{"type":"DT_FLOAT"},"data_format":{"s":"TkhXQw=="}}},{"name":"resnet_v1_50/block3/unit_6/bottleneck_v1/add","op":"Add","input":["resnet_v1_50/block3/unit_6/bottleneck_v1/conv3/BatchNorm/batchnorm_1/add_1","resnet_v1_50/block3/unit_6/bottleneck_v1/shortcut/MaxPool"],"attr":{"T":{"type":"DT_FLOAT"}}},{"name":"resnet_v1_50/block3/unit_6/bottleneck_v1/Relu","op":"Relu","input":["resnet_v1_50/block3/unit_6/bottleneck_v1/add"],"attr":{"T":{"type":"DT_FLOAT"}}},{"name":"resnet_v1_50/block4/unit_1/bottleneck_v1/shortcut/BatchNorm/batchnorm_1/add_1/conv","op":"Conv2D","input":["resnet_v1_50/block3/unit_6/bottleneck_v1/Relu","resnet_v1_50/block4/unit_1/bottleneck_v1/shortcut/weights"],"attr":{"use_cudnn_on_gpu":{"b":true},"explicit_paddings":{"list":{}},"padding":{"s":"U0FNRQ=="},"dilations":{"list":{"i":["1","1","1","1"]}},"T":{"type":"DT_FLOAT"},"data_format":{"s":"TkhXQw=="},"strides":{"list":{"i":["1","1","1","1"]}}}},{"name":"resnet_v1_50/block4/unit_1/bottleneck_v1/conv1/BatchNorm/batchnorm_1/add_1/conv","op":"Conv2D","input":["resnet_v1_50/block3/unit_6/bottleneck_v1/Relu","resnet_v1_50/block4/unit_1/bottleneck_v1/conv1/weights"],"attr":{"padding":{"s":"U0FNRQ=="},"dilations":{"list":{"i":["1","1","1","1"]}},"T":{"type":"DT_FLOAT"},"strides":{"list":{"i":["1","1","1","1"]}},"data_format":{"s":"TkhXQw=="},"use_cudnn_on_gpu":{"b":true},"explicit_paddings":{"list":{}}}},{"name":"resnet_v1_50/block4/unit_1/bottleneck_v1/shortcut/BatchNorm/batchnorm_1/add_1","op":"BiasAdd","input":["resnet_v1_50/block4/unit_1/bottleneck_v1/shortcut/BatchNorm/batchnorm_1/add_1/conv","resnet_v1_50/block4/unit_1/bottleneck_v1/shortcut/Conv2D_bias"],"attr":{"T":{"type":"DT_FLOAT"},"data_format":{"s":"TkhXQw=="}}},{"name":"resnet_v1_50/block4/unit_1/bottleneck_v1/conv1/BatchNorm/batchnorm_1/add_1","op":"BiasAdd","input":["resnet_v1_50/block4/unit_1/bottleneck_v1/conv1/BatchNorm/batchnorm_1/add_1/conv","resnet_v1_50/block4/unit_1/bottleneck_v1/conv1/Conv2D_bias"],"attr":{"T":{"type":"DT_FLOAT"},"data_format":{"s":"TkhXQw=="}}},{"name":"resnet_v1_50/block4/unit_1/bottleneck_v1/conv1/Relu","op":"Relu","input":["resnet_v1_50/block4/unit_1/bottleneck_v1/conv1/BatchNorm/batchnorm_1/add_1"],"attr":{"T":{"type":"DT_FLOAT"}}},{"name":"resnet_v1_50/block4/unit_1/bottleneck_v1/conv2/BatchNorm/batchnorm_1/add_1/conv","op":"Conv2D","input":["resnet_v1_50/block4/unit_1/bottleneck_v1/conv1/Relu","resnet_v1_50/block4/unit_1/bottleneck_v1/conv2/weights"],"attr":{"dilations":{"list":{"i":["2","2","1","1"]}},"T":{"type":"DT_FLOAT"},"data_format":{"s":"TkhXQw=="},"strides":{"list":{"i":["1","1","1","1"]}},"explicit_paddings":{"list":{}},"use_cudnn_on_gpu":{"b":true},"padding":{"s":"U0FNRQ=="}}},{"name":"resnet_v1_50/block4/unit_1/bottleneck_v1/conv2/BatchNorm/batchnorm_1/add_1","op":"BiasAdd","input":["resnet_v1_50/block4/unit_1/bottleneck_v1/conv2/BatchNorm/batchnorm_1/add_1/conv","resnet_v1_50/block4/unit_1/bottleneck_v1/conv2/Conv2D_bias"],"attr":{"T":{"type":"DT_FLOAT"},"data_format":{"s":"TkhXQw=="}}},{"name":"resnet_v1_50/block4/unit_1/bottleneck_v1/conv2/Relu","op":"Relu","input":["resnet_v1_50/block4/unit_1/bottleneck_v1/conv2/BatchNorm/batchnorm_1/add_1"],"attr":{"T":{"type":"DT_FLOAT"}}},{"name":"resnet_v1_50/block4/unit_1/bottleneck_v1/conv3/BatchNorm/batchnorm_1/add_1/conv","op":"Conv2D","input":["resnet_v1_50/block4/unit_1/bottleneck_v1/conv2/Relu","resnet_v1_50/block4/unit_1/bottleneck_v1/conv3/weights"],"attr":{"dilations":{"list":{"i":["1","1","1","1"]}},"T":{"type":"DT_FLOAT"},"strides":{"list":{"i":["1","1","1","1"]}},"data_format":{"s":"TkhXQw=="},"use_cudnn_on_gpu":{"b":true},"explicit_paddings":{"list":{}},"padding":{"s":"U0FNRQ=="}}},{"name":"resnet_v1_50/block4/unit_1/bottleneck_v1/conv3/BatchNorm/batchnorm_1/add_1","op":"BiasAdd","input":["resnet_v1_50/block4/unit_1/bottleneck_v1/conv3/BatchNorm/batchnorm_1/add_1/conv","resnet_v1_50/block4/unit_1/bottleneck_v1/conv3/Conv2D_bias"],"attr":{"T":{"type":"DT_FLOAT"},"data_format":{"s":"TkhXQw=="}}},{"name":"resnet_v1_50/block4/unit_1/bottleneck_v1/add","op":"Add","input":["resnet_v1_50/block4/unit_1/bottleneck_v1/conv3/BatchNorm/batchnorm_1/add_1","resnet_v1_50/block4/unit_1/bottleneck_v1/shortcut/BatchNorm/batchnorm_1/add_1"],"attr":{"T":{"type":"DT_FLOAT"}}},{"name":"resnet_v1_50/block4/unit_1/bottleneck_v1/Relu","op":"Relu","input":["resnet_v1_50/block4/unit_1/bottleneck_v1/add"],"attr":{"T":{"type":"DT_FLOAT"}}},{"name":"resnet_v1_50/block4/unit_2/bottleneck_v1/conv1/BatchNorm/batchnorm_1/add_1/conv","op":"Conv2D","input":["resnet_v1_50/block4/unit_1/bottleneck_v1/Relu","resnet_v1_50/block4/unit_2/bottleneck_v1/conv1/weights"],"attr":{"dilations":{"list":{"i":["1","1","1","1"]}},"T":{"type":"DT_FLOAT"},"data_format":{"s":"TkhXQw=="},"strides":{"list":{"i":["1","1","1","1"]}},"use_cudnn_on_gpu":{"b":true},"explicit_paddings":{"list":{}},"padding":{"s":"U0FNRQ=="}}},{"name":"resnet_v1_50/block4/unit_2/bottleneck_v1/conv1/BatchNorm/batchnorm_1/add_1","op":"BiasAdd","input":["resnet_v1_50/block4/unit_2/bottleneck_v1/conv1/BatchNorm/batchnorm_1/add_1/conv","resnet_v1_50/block4/unit_2/bottleneck_v1/conv1/Conv2D_bias"],"attr":{"T":{"type":"DT_FLOAT"},"data_format":{"s":"TkhXQw=="}}},{"name":"resnet_v1_50/block4/unit_2/bottleneck_v1/conv1/Relu","op":"Relu","input":["resnet_v1_50/block4/unit_2/bottleneck_v1/conv1/BatchNorm/batchnorm_1/add_1"],"attr":{"T":{"type":"DT_FLOAT"}}},{"name":"resnet_v1_50/block4/unit_2/bottleneck_v1/conv2/BatchNorm/batchnorm_1/add_1/conv","op":"Conv2D","input":["resnet_v1_50/block4/unit_2/bottleneck_v1/conv1/Relu","resnet_v1_50/block4/unit_2/bottleneck_v1/conv2/weights"],"attr":{"dilations":{"list":{"i":["2","2","1","1"]}},"T":{"type":"DT_FLOAT"},"strides":{"list":{"i":["1","1","1","1"]}},"data_format":{"s":"TkhXQw=="},"use_cudnn_on_gpu":{"b":true},"explicit_paddings":{"list":{}},"padding":{"s":"U0FNRQ=="}}},{"name":"resnet_v1_50/block4/unit_2/bottleneck_v1/conv2/BatchNorm/batchnorm_1/add_1","op":"BiasAdd","input":["resnet_v1_50/block4/unit_2/bottleneck_v1/conv2/BatchNorm/batchnorm_1/add_1/conv","resnet_v1_50/block4/unit_2/bottleneck_v1/conv2/Conv2D_bias"],"attr":{"data_format":{"s":"TkhXQw=="},"T":{"type":"DT_FLOAT"}}},{"name":"resnet_v1_50/block4/unit_2/bottleneck_v1/conv2/Relu","op":"Relu","input":["resnet_v1_50/block4/unit_2/bottleneck_v1/conv2/BatchNorm/batchnorm_1/add_1"],"attr":{"T":{"type":"DT_FLOAT"}}},{"name":"resnet_v1_50/block4/unit_2/bottleneck_v1/conv3/BatchNorm/batchnorm_1/add_1/conv","op":"Conv2D","input":["resnet_v1_50/block4/unit_2/bottleneck_v1/conv2/Relu","resnet_v1_50/block4/unit_2/bottleneck_v1/conv3/weights"],"attr":{"dilations":{"list":{"i":["1","1","1","1"]}},"T":{"type":"DT_FLOAT"},"strides":{"list":{"i":["1","1","1","1"]}},"data_format":{"s":"TkhXQw=="},"use_cudnn_on_gpu":{"b":true},"explicit_paddings":{"list":{}},"padding":{"s":"U0FNRQ=="}}},{"name":"resnet_v1_50/block4/unit_2/bottleneck_v1/conv3/BatchNorm/batchnorm_1/add_1","op":"BiasAdd","input":["resnet_v1_50/block4/unit_2/bottleneck_v1/conv3/BatchNorm/batchnorm_1/add_1/conv","resnet_v1_50/block4/unit_2/bottleneck_v1/conv3/Conv2D_bias"],"attr":{"T":{"type":"DT_FLOAT"},"data_format":{"s":"TkhXQw=="}}},{"name":"resnet_v1_50/block4/unit_2/bottleneck_v1/add","op":"Add","input":["resnet_v1_50/block4/unit_1/bottleneck_v1/Relu","resnet_v1_50/block4/unit_2/bottleneck_v1/conv3/BatchNorm/batchnorm_1/add_1"],"attr":{"T":{"type":"DT_FLOAT"}}},{"name":"resnet_v1_50/block4/unit_2/bottleneck_v1/Relu","op":"Relu","input":["resnet_v1_50/block4/unit_2/bottleneck_v1/add"],"attr":{"T":{"type":"DT_FLOAT"}}},{"name":"resnet_v1_50/block4/unit_3/bottleneck_v1/conv1/BatchNorm/batchnorm_1/add_1/conv","op":"Conv2D","input":["resnet_v1_50/block4/unit_2/bottleneck_v1/Relu","resnet_v1_50/block4/unit_3/bottleneck_v1/conv1/weights"],"attr":{"padding":{"s":"U0FNRQ=="},"dilations":{"list":{"i":["1","1","1","1"]}},"T":{"type":"DT_FLOAT"},"data_format":{"s":"TkhXQw=="},"strides":{"list":{"i":["1","1","1","1"]}},"explicit_paddings":{"list":{}},"use_cudnn_on_gpu":{"b":true}}},{"name":"resnet_v1_50/block4/unit_3/bottleneck_v1/conv1/BatchNorm/batchnorm_1/add_1","op":"BiasAdd","input":["resnet_v1_50/block4/unit_3/bottleneck_v1/conv1/BatchNorm/batchnorm_1/add_1/conv","resnet_v1_50/block4/unit_3/bottleneck_v1/conv1/Conv2D_bias"],"attr":{"data_format":{"s":"TkhXQw=="},"T":{"type":"DT_FLOAT"}}},{"name":"resnet_v1_50/block4/unit_3/bottleneck_v1/conv1/Relu","op":"Relu","input":["resnet_v1_50/block4/unit_3/bottleneck_v1/conv1/BatchNorm/batchnorm_1/add_1"],"attr":{"T":{"type":"DT_FLOAT"}}},{"name":"resnet_v1_50/block4/unit_3/bottleneck_v1/conv2/BatchNorm/batchnorm_1/add_1/conv","op":"Conv2D","input":["resnet_v1_50/block4/unit_3/bottleneck_v1/conv1/Relu","resnet_v1_50/block4/unit_3/bottleneck_v1/conv2/weights"],"attr":{"dilations":{"list":{"i":["2","2","1","1"]}},"T":{"type":"DT_FLOAT"},"data_format":{"s":"TkhXQw=="},"strides":{"list":{"i":["1","1","1","1"]}},"explicit_paddings":{"list":{}},"use_cudnn_on_gpu":{"b":true},"padding":{"s":"U0FNRQ=="}}},{"name":"resnet_v1_50/block4/unit_3/bottleneck_v1/conv2/BatchNorm/batchnorm_1/add_1","op":"BiasAdd","input":["resnet_v1_50/block4/unit_3/bottleneck_v1/conv2/BatchNorm/batchnorm_1/add_1/conv","resnet_v1_50/block4/unit_3/bottleneck_v1/conv2/Conv2D_bias"],"attr":{"T":{"type":"DT_FLOAT"},"data_format":{"s":"TkhXQw=="}}},{"name":"resnet_v1_50/block4/unit_3/bottleneck_v1/conv2/Relu","op":"Relu","input":["resnet_v1_50/block4/unit_3/bottleneck_v1/conv2/BatchNorm/batchnorm_1/add_1"],"attr":{"T":{"type":"DT_FLOAT"}}},{"name":"resnet_v1_50/block4/unit_3/bottleneck_v1/conv3/BatchNorm/batchnorm_1/add_1/conv","op":"Conv2D","input":["resnet_v1_50/block4/unit_3/bottleneck_v1/conv2/Relu","resnet_v1_50/block4/unit_3/bottleneck_v1/conv3/weights"],"attr":{"data_format":{"s":"TkhXQw=="},"strides":{"list":{"i":["1","1","1","1"]}},"use_cudnn_on_gpu":{"b":true},"explicit_paddings":{"list":{}},"padding":{"s":"U0FNRQ=="},"dilations":{"list":{"i":["1","1","1","1"]}},"T":{"type":"DT_FLOAT"}}},{"name":"resnet_v1_50/block4/unit_3/bottleneck_v1/conv3/BatchNorm/batchnorm_1/add_1","op":"BiasAdd","input":["resnet_v1_50/block4/unit_3/bottleneck_v1/conv3/BatchNorm/batchnorm_1/add_1/conv","resnet_v1_50/block4/unit_3/bottleneck_v1/conv3/Conv2D_bias"],"attr":{"T":{"type":"DT_FLOAT"},"data_format":{"s":"TkhXQw=="}}},{"name":"resnet_v1_50/block4/unit_3/bottleneck_v1/add","op":"Add","input":["resnet_v1_50/block4/unit_2/bottleneck_v1/Relu","resnet_v1_50/block4/unit_3/bottleneck_v1/conv3/BatchNorm/batchnorm_1/add_1"],"attr":{"T":{"type":"DT_FLOAT"}}},{"name":"resnet_v1_50/block4/unit_3/bottleneck_v1/Relu","op":"Relu","input":["resnet_v1_50/block4/unit_3/bottleneck_v1/add"],"attr":{"T":{"type":"DT_FLOAT"}}},{"name":"resnet_v1_50/displacement_bwd_2/BiasAdd/conv","op":"Conv2D","input":["resnet_v1_50/block4/unit_3/bottleneck_v1/Relu","resnet_v1_50/displacement_bwd_2/weights"],"attr":{"padding":{"s":"U0FNRQ=="},"dilations":{"list":{"i":["1","1","1","1"]}},"T":{"type":"DT_FLOAT"},"data_format":{"s":"TkhXQw=="},"strides":{"list":{"i":["1","1","1","1"]}},"use_cudnn_on_gpu":{"b":true},"explicit_paddings":{"list":{}}}},{"name":"resnet_v1_50/displacement_fwd_2/BiasAdd/conv","op":"Conv2D","input":["resnet_v1_50/block4/unit_3/bottleneck_v1/Relu","resnet_v1_50/displacement_fwd_2/weights"],"attr":{"dilations":{"list":{"i":["1","1","1","1"]}},"T":{"type":"DT_FLOAT"},"data_format":{"s":"TkhXQw=="},"strides":{"list":{"i":["1","1","1","1"]}},"explicit_paddings":{"list":{}},"use_cudnn_on_gpu":{"b":true},"padding":{"s":"U0FNRQ=="}}},{"name":"float_heatmaps/conv","op":"Conv2D","input":["resnet_v1_50/block4/unit_3/bottleneck_v1/Relu","resnet_v1_50/heatmap_2/weights"],"attr":{"padding":{"s":"U0FNRQ=="},"dilations":{"list":{"i":["1","1","1","1"]}},"T":{"type":"DT_FLOAT"},"strides":{"list":{"i":["1","1","1","1"]}},"data_format":{"s":"TkhXQw=="},"use_cudnn_on_gpu":{"b":true},"explicit_paddings":{"list":{}}}},{"name":"float_long_offsets/conv","op":"Conv2D","input":["resnet_v1_50/block4/unit_3/bottleneck_v1/Relu","resnet_v1_50/embedding_2/weights"],"attr":{"dilations":{"list":{"i":["1","1","1","1"]}},"T":{"type":"DT_FLOAT"},"data_format":{"s":"TkhXQw=="},"strides":{"list":{"i":["1","1","1","1"]}},"explicit_paddings":{"list":{}},"use_cudnn_on_gpu":{"b":true},"padding":{"s":"U0FNRQ=="}}},{"name":"float_short_offsets/conv","op":"Conv2D","input":["resnet_v1_50/block4/unit_3/bottleneck_v1/Relu","resnet_v1_50/offset_2/weights"],"attr":{"padding":{"s":"U0FNRQ=="},"dilations":{"list":{"i":["1","1","1","1"]}},"T":{"type":"DT_FLOAT"},"strides":{"list":{"i":["1","1","1","1"]}},"data_format":{"s":"TkhXQw=="},"use_cudnn_on_gpu":{"b":true},"explicit_paddings":{"list":{}}}},{"name":"float_part_heatmaps/conv","op":"Conv2D","input":["resnet_v1_50/block4/unit_3/bottleneck_v1/Relu","resnet_v1_50/part_heatmap_2/weights"],"attr":{"T":{"type":"DT_FLOAT"},"strides":{"list":{"i":["1","1","1","1"]}},"data_format":{"s":"TkhXQw=="},"explicit_paddings":{"list":{}},"use_cudnn_on_gpu":{"b":true},"padding":{"s":"U0FNRQ=="},"dilations":{"list":{"i":["1","1","1","1"]}}}},{"name":"add_1/conv","op":"Conv2D","input":["resnet_v1_50/block4/unit_3/bottleneck_v1/Relu","resnet_v1_50/part_offset_2/weights"],"attr":{"dilations":{"list":{"i":["1","1","1","1"]}},"T":{"type":"DT_FLOAT"},"strides":{"list":{"i":["1","1","1","1"]}},"data_format":{"s":"TkhXQw=="},"explicit_paddings":{"list":{}},"use_cudnn_on_gpu":{"b":true},"padding":{"s":"U0FNRQ=="}}},{"name":"float_segments/conv","op":"Conv2D","input":["resnet_v1_50/block4/unit_3/bottleneck_v1/Relu","resnet_v1_50/segment_2/weights"],"attr":{"dilations":{"list":{"i":["1","1","1","1"]}},"T":{"type":"DT_FLOAT"},"data_format":{"s":"TkhXQw=="},"strides":{"list":{"i":["1","1","1","1"]}},"use_cudnn_on_gpu":{"b":true},"explicit_paddings":{"list":{}},"padding":{"s":"U0FNRQ=="}}},{"name":"resnet_v1_50/displacement_bwd_2/BiasAdd","op":"BiasAdd","input":["resnet_v1_50/displacement_bwd_2/BiasAdd/conv","resnet_v1_50/displacement_bwd_2/Conv2D_bias"],"attr":{"T":{"type":"DT_FLOAT"},"data_format":{"s":"TkhXQw=="}}},{"name":"resnet_v1_50/displacement_fwd_2/BiasAdd","op":"BiasAdd","input":["resnet_v1_50/displacement_fwd_2/BiasAdd/conv","resnet_v1_50/displacement_fwd_2/Conv2D_bias"],"attr":{"T":{"type":"DT_FLOAT"},"data_format":{"s":"TkhXQw=="}}},{"name":"float_heatmaps","op":"BiasAdd","input":["float_heatmaps/conv","resnet_v1_50/heatmap_2/Conv2D_bias"],"attr":{"T":{"type":"DT_FLOAT"},"data_format":{"s":"TkhXQw=="}}},{"name":"float_long_offsets","op":"BiasAdd","input":["float_long_offsets/conv","resnet_v1_50/embedding_2/Conv2D_bias"],"attr":{"T":{"type":"DT_FLOAT"},"data_format":{"s":"TkhXQw=="}}},{"name":"float_short_offsets","op":"BiasAdd","input":["float_short_offsets/conv","resnet_v1_50/offset_2/Conv2D_bias"],"attr":{"data_format":{"s":"TkhXQw=="},"T":{"type":"DT_FLOAT"}}},{"name":"float_part_heatmaps","op":"BiasAdd","input":["float_part_heatmaps/conv","resnet_v1_50/part_heatmap_2/Conv2D_bias"],"attr":{"T":{"type":"DT_FLOAT"},"data_format":{"s":"TkhXQw=="}}},{"name":"add_1","op":"BiasAdd","input":["add_1/conv","resnet_v1_50/part_offset_2/Conv2D_bias"],"attr":{"T":{"type":"DT_FLOAT"},"data_format":{"s":"TkhXQw=="}}},{"name":"float_segments","op":"BiasAdd","input":["float_segments/conv","resnet_v1_50/segment_2/Conv2D_bias"],"attr":{"data_format":{"s":"TkhXQw=="},"T":{"type":"DT_FLOAT"}}},{"name":"clip_by_value/Minimum","op":"Minimum","input":["add_1","clip_by_value/Minimum/y"],"attr":{"T":{"type":"DT_FLOAT"}}},{"name":"float_part_offsets","op":"Maximum","input":["clip_by_value/Minimum","clip_by_value/y"],"attr":{"T":{"type":"DT_FLOAT"}}}],"library":{},"versions":{"producer":114}},"weightsManifest":[{"paths":["group1-shard1of12.bin","group1-shard2of12.bin","group1-shard3of12.bin","group1-shard4of12.bin","group1-shard5of12.bin","group1-shard6of12.bin","group1-shard7of12.bin","group1-shard8of12.bin","group1-shard9of12.bin","group1-shard10of12.bin","group1-shard11of12.bin","group1-shard12of12.bin"],"weights":[{"name":"resnet_v1_50/Pad/paddings","shape":[4,2],"dtype":"int32","quantization":{"min":0,"scale":0.000045777065690089265,"dtype":"uint16"}},{"name":"resnet_v1_50/conv1/weights","shape":[7,7,3,64],"dtype":"float32","quantization":{"min":-0.05810784148848865,"scale":0.0000017139944985100777,"dtype":"uint16"}},{"name":"resnet_v1_50/conv1/Conv2D_bias","shape":[64],"dtype":"float32","quantization":{"min":-3.513119092754871,"scale":0.00009505963938509271,"dtype":"uint16"}},{"name":"resnet_v1_50/Pad_1/paddings","shape":[4,2],"dtype":"int32","quantization":{"min":0,"scale":0.000015259021896696422,"dtype":"uint16"}},{"name":"resnet_v1_50/block1/unit_1/bottleneck_v1/shortcut/weights","shape":[1,1,64,256],"dtype":"float32","quantization":{"min":-3.0354765156018084,"scale":0.00007435155331410887,"dtype":"uint16"}},{"name":"resnet_v1_50/block1/unit_1/bottleneck_v1/shortcut/Conv2D_bias","shape":[256],"dtype":"float32","quantization":{"min":-5.116737012542284,"scale":0.00020340834873950643,"dtype":"uint16"}},{"name":"resnet_v1_50/block1/unit_1/bottleneck_v1/conv1/weights","shape":[1,1,64,64],"dtype":"float32","quantization":{"min":-3.1302344549217933,"scale":0.00006961645883199434,"dtype":"uint16"}},{"name":"resnet_v1_50/block1/unit_1/bottleneck_v1/conv1/Conv2D_bias","shape":[64],"dtype":"float32","quantization":{"min":-4.205515856170596,"scale":0.00013325039942240727,"dtype":"uint16"}},{"name":"resnet_v1_50/block1/unit_1/bottleneck_v1/conv2/weights","shape":[3,3,64,64],"dtype":"float32","quantization":{"min":-0.5831397156952957,"scale":0.000015707044004075195,"dtype":"uint16"}},{"name":"resnet_v1_50/block1/unit_1/bottleneck_v1/conv2/Conv2D_bias","shape":[64],"dtype":"float32","quantization":{"min":-2.5277237501098573,"scale":0.00011408240060070664,"dtype":"uint16"}},{"name":"resnet_v1_50/block1/unit_1/bottleneck_v1/conv3/weights","shape":[1,1,64,256],"dtype":"float32","quantization":{"min":-3.3125798629006358,"scale":0.00009368685623905866,"dtype":"uint16"}},{"name":"resnet_v1_50/block1/unit_1/bottleneck_v1/conv3/Conv2D_bias","shape":[256],"dtype":"float32","quantization":{"min":-4.527746067489504,"scale":0.00017146006996211248,"dtype":"uint16"}},{"name":"resnet_v1_50/block1/unit_2/bottleneck_v1/conv1/weights","shape":[1,1,256,64],"dtype":"float32","quantization":{"min":-0.7438086056478275,"scale":0.000018565510324676203,"dtype":"uint16"}},{"name":"resnet_v1_50/block1/unit_2/bottleneck_v1/conv1/Conv2D_bias","shape":[64],"dtype":"float32","quantization":{"min":-2.849083832511369,"scale":0.0000756427408074172,"dtype":"uint16"}},{"name":"resnet_v1_50/block1/unit_2/bottleneck_v1/conv2/weights","shape":[3,3,64,64],"dtype":"float32","quantization":{"min":-0.6424398743252264,"scale":0.00002649782942153955,"dtype":"uint16"}},{"name":"resnet_v1_50/block1/unit_2/bottleneck_v1/conv2/Conv2D_bias","shape":[64],"dtype":"float32","quantization":{"min":-2.5381373941921086,"scale":0.00006228863733660814,"dtype":"uint16"}},{"name":"resnet_v1_50/block1/unit_2/bottleneck_v1/conv3/weights","shape":[1,1,64,256],"dtype":"float32","quantization":{"min":-2.3406536721342843,"scale":0.00007433478379491502,"dtype":"uint16"}},{"name":"resnet_v1_50/block1/unit_2/bottleneck_v1/conv3/Conv2D_bias","shape":[256],"dtype":"float32","quantization":{"min":-4.631737710922636,"scale":0.00012081638393517062,"dtype":"uint16"}},{"name":"resnet_v1_50/block1/unit_3/bottleneck_v1/conv1/weights","shape":[1,1,256,64],"dtype":"float32","quantization":{"min":-1.054059438308171,"scale":0.000022699186801364694,"dtype":"uint16"}},{"name":"resnet_v1_50/block1/unit_3/bottleneck_v1/conv1/Conv2D_bias","shape":[64],"dtype":"float32","quantization":{"min":-2.8878850216849896,"scale":0.00005862059560094571,"dtype":"uint16"}},{"name":"resnet_v1_50/block1/unit_3/bottleneck_v1/conv2/weights","shape":[3,3,64,64],"dtype":"float32","quantization":{"min":-0.44275419730529675,"scale":0.000013774513807214534,"dtype":"uint16"}},{"name":"resnet_v1_50/block1/unit_3/bottleneck_v1/conv2/Conv2D_bias","shape":[64],"dtype":"float32","quantization":{"min":-0.4235860638272128,"scale":0.00002961519008789854,"dtype":"uint16"}},{"name":"resnet_v1_50/block1/unit_3/bottleneck_v1/conv3/weights","shape":[1,1,64,256],"dtype":"float32","quantization":{"min":-1.686136796935214,"scale":0.00005308159285173033,"dtype":"uint16"}},{"name":"resnet_v1_50/block1/unit_3/bottleneck_v1/conv3/Conv2D_bias","shape":[256],"dtype":"float32","quantization":{"min":-1.8962575333591565,"scale":0.00007481191199586367,"dtype":"uint16"}},{"name":"resnet_v1_50/block2/unit_1/bottleneck_v1/shortcut/weights","shape":[1,1,256,512],"dtype":"float32","quantization":{"min":-1.9384704549025005,"scale":0.00005045734954715239,"dtype":"uint16"}},{"name":"resnet_v1_50/block2/unit_1/bottleneck_v1/shortcut/Conv2D_bias","shape":[512],"dtype":"float32","quantization":{"min":-3.425944335467757,"scale":0.00013637227670837342,"dtype":"uint16"}},{"name":"resnet_v1_50/block2/unit_1/bottleneck_v1/conv1/weights","shape":[1,1,256,128],"dtype":"float32","quantization":{"min":-0.7642084811466313,"scale":0.000019315265541428822,"dtype":"uint16"}},{"name":"resnet_v1_50/block2/unit_1/bottleneck_v1/conv1/Conv2D_bias","shape":[128],"dtype":"float32","quantization":{"min":-2.3916374833958365,"scale":0.00007161663372947557,"dtype":"uint16"}},{"name":"resnet_v1_50/block2/unit_1/bottleneck_v1/conv2/weights","shape":[3,3,128,128],"dtype":"float32","quantization":{"min":-0.534647135338649,"scale":0.000013125650831970369,"dtype":"uint16"}},{"name":"resnet_v1_50/block2/unit_1/bottleneck_v1/conv2/Conv2D_bias","shape":[128],"dtype":"float32","quantization":{"min":-2.3520643020773075,"scale":0.00010909389156202726,"dtype":"uint16"}},{"name":"resnet_v1_50/block2/unit_1/bottleneck_v1/conv3/weights","shape":[1,1,128,512],"dtype":"float32","quantization":{"min":-3.2197069733550494,"scale":0.00009775349829538359,"dtype":"uint16"}},{"name":"resnet_v1_50/block2/unit_1/bottleneck_v1/conv3/Conv2D_bias","shape":[512],"dtype":"float32","quantization":{"min":-3.9216333836178365,"scale":0.00011788004639947807,"dtype":"uint16"}},{"name":"resnet_v1_50/block2/unit_2/bottleneck_v1/conv1/weights","shape":[1,1,512,128],"dtype":"float32","quantization":{"min":-0.3199373622085043,"scale":0.000009012320062211388,"dtype":"uint16"}},{"name":"resnet_v1_50/block2/unit_2/bottleneck_v1/conv1/Conv2D_bias","shape":[128],"dtype":"float32","quantization":{"min":-3.3419758798492722,"scale":0.00007381177816218549,"dtype":"uint16"}},{"name":"resnet_v1_50/block2/unit_2/bottleneck_v1/conv2/weights","shape":[3,3,128,128],"dtype":"float32","quantization":{"min":-0.6488143048570568,"scale":0.000020691211048794745,"dtype":"uint16"}},{"name":"resnet_v1_50/block2/unit_2/bottleneck_v1/conv2/Conv2D_bias","shape":[128],"dtype":"float32","quantization":{"min":-1.1789826581213814,"scale":0.0000409895580475396,"dtype":"uint16"}},{"name":"resnet_v1_50/block2/unit_2/bottleneck_v1/conv3/weights","shape":[1,1,128,512],"dtype":"float32","quantization":{"min":-2.4799889924970597,"scale":0.00007167391094179532,"dtype":"uint16"}},{"name":"resnet_v1_50/block2/unit_2/bottleneck_v1/conv3/Conv2D_bias","shape":[512],"dtype":"float32","quantization":{"min":-2.003275389873964,"scale":0.00007534792905833544,"dtype":"uint16"}},{"name":"resnet_v1_50/block2/unit_3/bottleneck_v1/conv1/weights","shape":[1,1,512,128],"dtype":"float32","quantization":{"min":-0.33512795299434855,"scale":0.00001896378185798713,"dtype":"uint16"}},{"name":"resnet_v1_50/block2/unit_3/bottleneck_v1/conv1/Conv2D_bias","shape":[128],"dtype":"float32","quantization":{"min":-2.639740839155131,"scale":0.00007155126552883016,"dtype":"uint16"}},{"name":"resnet_v1_50/block2/unit_3/bottleneck_v1/conv2/weights","shape":[3,3,128,128],"dtype":"float32","quantization":{"min":-0.6959210117430602,"scale":0.000023315498919293093,"dtype":"uint16"}},{"name":"resnet_v1_50/block2/unit_3/bottleneck_v1/conv2/Conv2D_bias","shape":[128],"dtype":"float32","quantization":{"min":-2.750149671642315,"scale":0.00005843425275459619,"dtype":"uint16"}},{"name":"resnet_v1_50/block2/unit_3/bottleneck_v1/conv3/weights","shape":[1,1,128,512],"dtype":"float32","quantization":{"min":-4.506993505772295,"scale":0.00012647304708082542,"dtype":"uint16"}},{"name":"resnet_v1_50/block2/unit_3/bottleneck_v1/conv3/Conv2D_bias","shape":[512],"dtype":"float32","quantization":{"min":-1.8918775655679956,"scale":0.00007058454522135565,"dtype":"uint16"}},{"name":"resnet_v1_50/block2/unit_4/bottleneck_v1/conv1/weights","shape":[1,1,512,128],"dtype":"float32","quantization":{"min":-0.510544865544477,"scale":0.000018263749930044965,"dtype":"uint16"}},{"name":"resnet_v1_50/block2/unit_4/bottleneck_v1/conv1/Conv2D_bias","shape":[128],"dtype":"float32","quantization":{"min":-3.1331028515917674,"scale":0.000060931599603107105,"dtype":"uint16"}},{"name":"resnet_v1_50/block2/unit_4/bottleneck_v1/conv2/weights","shape":[3,3,128,128],"dtype":"float32","quantization":{"min":-0.3613029558098161,"scale":0.000012549599020834181,"dtype":"uint16"}},{"name":"resnet_v1_50/block2/unit_4/bottleneck_v1/conv2/Conv2D_bias","shape":[128],"dtype":"float32","quantization":{"min":-1.0466188758645787,"scale":0.00004523767616980371,"dtype":"uint16"}},{"name":"resnet_v1_50/block2/unit_4/bottleneck_v1/conv3/weights","shape":[1,1,128,512],"dtype":"float32","quantization":{"min":-1.4994674787010582,"scale":0.00005736075432083923,"dtype":"uint16"}},{"name":"resnet_v1_50/block2/unit_4/bottleneck_v1/conv3/Conv2D_bias","shape":[512],"dtype":"float32","quantization":{"min":-2.6523820517928445,"scale":0.00008563529692935281,"dtype":"uint16"}},{"name":"resnet_v1_50/block3/unit_1/bottleneck_v1/shortcut/weights","shape":[1,1,512,1024],"dtype":"float32","quantization":{"min":-0.8225906676955779,"scale":0.00003572597905301098,"dtype":"uint16"}},{"name":"resnet_v1_50/block3/unit_1/bottleneck_v1/shortcut/Conv2D_bias","shape":[1024],"dtype":"float32","quantization":{"min":-3.235251010029069,"scale":0.00010505084943433025,"dtype":"uint16"}},{"name":"resnet_v1_50/block3/unit_1/bottleneck_v1/conv1/weights","shape":[1,1,512,256],"dtype":"float32","quantization":{"min":-0.4658270852456806,"scale":0.000013354368592560077,"dtype":"uint16"}},{"name":"resnet_v1_50/block3/unit_1/bottleneck_v1/conv1/Conv2D_bias","shape":[256],"dtype":"float32","quantization":{"min":-2.411513819246677,"scale":0.00005770690419121484,"dtype":"uint16"}},{"name":"resnet_v1_50/block3/unit_1/bottleneck_v1/conv2/weights","shape":[3,3,256,256],"dtype":"float32","quantization":{"min":-0.4555488782770493,"scale":0.000015026681563433478,"dtype":"uint16"}},{"name":"resnet_v1_50/block3/unit_1/bottleneck_v1/conv2/Conv2D_bias","shape":[256],"dtype":"float32","quantization":{"min":-2.3560138342627366,"scale":0.00007990550565584997,"dtype":"uint16"}},{"name":"resnet_v1_50/block3/unit_1/bottleneck_v1/conv3/weights","shape":[1,1,256,1024],"dtype":"float32","quantization":{"min":-9.017650655646197,"scale":0.00021206026374861716,"dtype":"uint16"}},{"name":"resnet_v1_50/block3/unit_1/bottleneck_v1/conv3/Conv2D_bias","shape":[1024],"dtype":"float32","quantization":{"min":-2.797076073738442,"scale":0.00010398438877796357,"dtype":"uint16"}},{"name":"resnet_v1_50/block3/unit_2/bottleneck_v1/conv1/weights","shape":[1,1,1024,256],"dtype":"float32","quantization":{"min":-0.24598452374924598,"scale":0.00000972693755187022,"dtype":"uint16"}},{"name":"resnet_v1_50/block3/unit_2/bottleneck_v1/conv1/Conv2D_bias","shape":[256],"dtype":"float32","quantization":{"min":-2.2730764559843797,"scale":0.00006618747505996505,"dtype":"uint16"}},{"name":"resnet_v1_50/block3/unit_2/bottleneck_v1/conv2/weights","shape":[3,3,256,256],"dtype":"float32","quantization":{"min":-0.4664802514161581,"scale":0.00001756723097899217,"dtype":"uint16"}},{"name":"resnet_v1_50/block3/unit_2/bottleneck_v1/conv2/Conv2D_bias","shape":[256],"dtype":"float32","quantization":{"min":-2.05315554825403,"scale":0.000075295421309008,"dtype":"uint16"}},{"name":"resnet_v1_50/block3/unit_2/bottleneck_v1/conv3/weights","shape":[1,1,256,1024],"dtype":"float32","quantization":{"min":-4.651850811312999,"scale":0.00009664376140177418,"dtype":"uint16"}},{"name":"resnet_v1_50/block3/unit_2/bottleneck_v1/conv3/Conv2D_bias","shape":[1024],"dtype":"float32","quantization":{"min":-2.4322104932842223,"scale":0.00007190995752252085,"dtype":"uint16"}},{"name":"resnet_v1_50/block3/unit_3/bottleneck_v1/conv1/weights","shape":[1,1,1024,256],"dtype":"float32","quantization":{"min":-0.3503769059371119,"scale":0.000010814769613467248,"dtype":"uint16"}},{"name":"resnet_v1_50/block3/unit_3/bottleneck_v1/conv1/Conv2D_bias","shape":[256],"dtype":"float32","quantization":{"min":-2.6193073228666672,"scale":0.000053150449927287746,"dtype":"uint16"}},{"name":"resnet_v1_50/block3/unit_3/bottleneck_v1/conv2/weights","shape":[3,3,256,256],"dtype":"float32","quantization":{"min":-0.5621239243123427,"scale":0.000017079084991108156,"dtype":"uint16"}},{"name":"resnet_v1_50/block3/unit_3/bottleneck_v1/conv2/Conv2D_bias","shape":[256],"dtype":"float32","quantization":{"min":-1.8962520058080299,"scale":0.00004891660017562311,"dtype":"uint16"}},{"name":"resnet_v1_50/block3/unit_3/bottleneck_v1/conv3/weights","shape":[1,1,256,1024],"dtype":"float32","quantization":{"min":-1.2795719865385815,"scale":0.00004381195598639257,"dtype":"uint16"}},{"name":"resnet_v1_50/block3/unit_3/bottleneck_v1/conv3/Conv2D_bias","shape":[1024],"dtype":"float32","quantization":{"min":-2.1849835026625266,"scale":0.00005670421463842749,"dtype":"uint16"}},{"name":"resnet_v1_50/block3/unit_4/bottleneck_v1/conv1/weights","shape":[1,1,1024,256],"dtype":"float32","quantization":{"min":-0.19337165372644707,"scale":0.000007314155901597968,"dtype":"uint16"}},{"name":"resnet_v1_50/block3/unit_4/bottleneck_v1/conv1/Conv2D_bias","shape":[256],"dtype":"float32","quantization":{"min":-2.22854359269988,"scale":0.00004855532153953156,"dtype":"uint16"}},{"name":"resnet_v1_50/block3/unit_4/bottleneck_v1/conv2/weights","shape":[3,3,256,256],"dtype":"float32","quantization":{"min":-0.6409197586210477,"scale":0.000020032498550385935,"dtype":"uint16"}},{"name":"resnet_v1_50/block3/unit_4/bottleneck_v1/conv2/Conv2D_bias","shape":[256],"dtype":"float32","quantization":{"min":-2.891159660861486,"scale":0.00006399060801800505,"dtype":"uint16"}},{"name":"resnet_v1_50/block3/unit_4/bottleneck_v1/conv3/weights","shape":[1,1,256,1024],"dtype":"float32","quantization":{"min":-2.840043624322184,"scale":0.0000798595063499194,"dtype":"uint16"}},{"name":"resnet_v1_50/block3/unit_4/bottleneck_v1/conv3/Conv2D_bias","shape":[1024],"dtype":"float32","quantization":{"min":-1.415948645986899,"scale":0.000045385878773860476,"dtype":"uint16"}},{"name":"resnet_v1_50/block3/unit_5/bottleneck_v1/conv1/weights","shape":[1,1,1024,256],"dtype":"float32","quantization":{"min":-0.23616023457863425,"scale":0.000009190902299226863,"dtype":"uint16"}},{"name":"resnet_v1_50/block3/unit_5/bottleneck_v1/conv1/Conv2D_bias","shape":[256],"dtype":"float32","quantization":{"min":-1.7730570213467467,"scale":0.00003741021249808517,"dtype":"uint16"}},{"name":"resnet_v1_50/block3/unit_5/bottleneck_v1/conv2/weights","shape":[3,3,256,256],"dtype":"float32","quantization":{"min":-0.8811525413643861,"scale":0.000025169314786608762,"dtype":"uint16"}},{"name":"resnet_v1_50/block3/unit_5/bottleneck_v1/conv2/Conv2D_bias","shape":[256],"dtype":"float32","quantization":{"min":-2.3013641082486527,"scale":0.00004606689969871395,"dtype":"uint16"}},{"name":"resnet_v1_50/block3/unit_5/bottleneck_v1/conv3/weights","shape":[1,1,256,1024],"dtype":"float32","quantization":{"min":-1.1530708970526604,"scale":0.000038203926083515354,"dtype":"uint16"}},{"name":"resnet_v1_50/block3/unit_5/bottleneck_v1/conv3/Conv2D_bias","shape":[1024],"dtype":"float32","quantization":{"min":-3.743073120147747,"scale":0.00007972636520794367,"dtype":"uint16"}},{"name":"resnet_v1_50/block3/unit_6/bottleneck_v1/conv1/weights","shape":[1,1,1024,256],"dtype":"float32","quantization":{"min":-0.19786564407891064,"scale":0.000009888338034928068,"dtype":"uint16"}},{"name":"resnet_v1_50/block3/unit_6/bottleneck_v1/conv1/Conv2D_bias","shape":[256],"dtype":"float32","quantization":{"min":-1.6875205693077948,"scale":0.00003981785633439029,"dtype":"uint16"}},{"name":"resnet_v1_50/block3/unit_6/bottleneck_v1/conv2/weights","shape":[3,3,256,256],"dtype":"float32","quantization":{"min":-0.9323856909160275,"scale":0.00002404171241596688,"dtype":"uint16"}},{"name":"resnet_v1_50/block3/unit_6/bottleneck_v1/conv2/Conv2D_bias","shape":[256],"dtype":"float32","quantization":{"min":-1.8462809640118667,"scale":0.00004324551949996174,"dtype":"uint16"}},{"name":"resnet_v1_50/block3/unit_6/bottleneck_v1/conv3/weights","shape":[1,1,256,1024],"dtype":"float32","quantization":{"min":-1.047326649253061,"scale":0.00004210696937454513,"dtype":"uint16"}},{"name":"resnet_v1_50/block3/unit_6/bottleneck_v1/conv3/Conv2D_bias","shape":[1024],"dtype":"float32","quantization":{"min":-2.4654263824695146,"scale":0.0000722342264354843,"dtype":"uint16"}},{"name":"resnet_v1_50/block4/unit_1/bottleneck_v1/shortcut/weights","shape":[1,1,1024,2048],"dtype":"float32","quantization":{"min":-2.385289281658971,"scale":0.00006408622465499653,"dtype":"uint16"}},{"name":"resnet_v1_50/block4/unit_1/bottleneck_v1/shortcut/Conv2D_bias","shape":[2048],"dtype":"float32","quantization":{"min":-4.908052996260501,"scale":0.00015427337009682847,"dtype":"uint16"}},{"name":"resnet_v1_50/block4/unit_1/bottleneck_v1/conv1/weights","shape":[1,1,1024,512],"dtype":"float32","quantization":{"min":-0.30612317131323624,"scale":0.000009996185061168896,"dtype":"uint16"}},{"name":"resnet_v1_50/block4/unit_1/bottleneck_v1/conv1/Conv2D_bias","shape":[512],"dtype":"float32","quantization":{"min":-2.3325936069666424,"scale":0.00004781570643393482,"dtype":"uint16"}},{"name":"resnet_v1_50/block4/unit_1/bottleneck_v1/conv2/weights","shape":[3,3,512,512],"dtype":"float32","quantization":{"min":-0.38886921685920883,"scale":0.000011845656660753284,"dtype":"uint16"}},{"name":"resnet_v1_50/block4/unit_1/bottleneck_v1/conv2/Conv2D_bias","shape":[512],"dtype":"float32","quantization":{"min":-1.7123414458204045,"scale":0.0000663826883434931,"dtype":"uint16"}},{"name":"resnet_v1_50/block4/unit_1/bottleneck_v1/conv3/weights","shape":[1,1,512,2048],"dtype":"float32","quantization":{"min":-4.438734596959966,"scale":0.00013022545392283897,"dtype":"uint16"}},{"name":"resnet_v1_50/block4/unit_1/bottleneck_v1/conv3/Conv2D_bias","shape":[2048],"dtype":"float32","quantization":{"min":-6.200210729354377,"scale":0.00016685623212019639,"dtype":"uint16"}},{"name":"resnet_v1_50/block4/unit_2/bottleneck_v1/conv1/weights","shape":[1,1,2048,512],"dtype":"float32","quantization":{"min":-0.11164943672141922,"scale":0.000004029065595663066,"dtype":"uint16"}},{"name":"resnet_v1_50/block4/unit_2/bottleneck_v1/conv1/Conv2D_bias","shape":[512],"dtype":"float32","quantization":{"min":-3.402859326621128,"scale":0.0000678536256554562,"dtype":"uint16"}},{"name":"resnet_v1_50/block4/unit_2/bottleneck_v1/conv2/weights","shape":[3,3,512,512],"dtype":"float32","quantization":{"min":-0.4410187615985919,"scale":0.000014451576550728835,"dtype":"uint16"}},{"name":"resnet_v1_50/block4/unit_2/bottleneck_v1/conv2/Conv2D_bias","shape":[512],"dtype":"float32","quantization":{"min":-2.235253426564261,"scale":0.000057918623236448604,"dtype":"uint16"}},{"name":"resnet_v1_50/block4/unit_2/bottleneck_v1/conv3/weights","shape":[1,1,512,2048],"dtype":"float32","quantization":{"min":-6.853138426092894,"scale":0.00021417396168800843,"dtype":"uint16"}},{"name":"resnet_v1_50/block4/unit_2/bottleneck_v1/conv3/Conv2D_bias","shape":[2048],"dtype":"float32","quantization":{"min":-8.416200526231593,"scale":0.00019415877745245562,"dtype":"uint16"}},{"name":"resnet_v1_50/block4/unit_3/bottleneck_v1/conv1/weights","shape":[1,1,2048,512],"dtype":"float32","quantization":{"min":-0.10175045864632266,"scale":0.000003056946331570457,"dtype":"uint16"}},{"name":"resnet_v1_50/block4/unit_3/bottleneck_v1/conv1/Conv2D_bias","shape":[512],"dtype":"float32","quantization":{"min":-2.9235313187058787,"scale":0.00007471902570362867,"dtype":"uint16"}},{"name":"resnet_v1_50/block4/unit_3/bottleneck_v1/conv2/weights","shape":[3,3,512,512],"dtype":"float32","quantization":{"min":-0.7823439323120862,"scale":0.00002524667394836989,"dtype":"uint16"}},{"name":"resnet_v1_50/block4/unit_3/bottleneck_v1/conv2/Conv2D_bias","shape":[512],"dtype":"float32","quantization":{"min":-2.2297511634032117,"scale":0.00005108952349471202,"dtype":"uint16"}},{"name":"resnet_v1_50/block4/unit_3/bottleneck_v1/conv3/weights","shape":[1,1,512,2048],"dtype":"float32","quantization":{"min":-4.753245294980856,"scale":0.00015478850120427434,"dtype":"uint16"}},{"name":"resnet_v1_50/block4/unit_3/bottleneck_v1/conv3/Conv2D_bias","shape":[2048],"dtype":"float32","quantization":{"min":-4.5857087925714275,"scale":0.00009464827229249593,"dtype":"uint16"}},{"name":"resnet_v1_50/displacement_bwd_2/weights","shape":[1,1,2048,32],"dtype":"float32","quantization":{"min":-0.9458007717101645,"scale":0.000023708439368063685,"dtype":"uint16"}},{"name":"resnet_v1_50/displacement_bwd_2/Conv2D_bias","shape":[32],"dtype":"float32","quantization":{"min":-0.07672245985619935,"scale":0.0000014388248946270718,"dtype":"uint16"}},{"name":"resnet_v1_50/displacement_fwd_2/weights","shape":[1,1,2048,32],"dtype":"float32","quantization":{"min":-0.453501124258144,"scale":0.000020185210497981215,"dtype":"uint16"}},{"name":"resnet_v1_50/displacement_fwd_2/Conv2D_bias","shape":[32],"dtype":"float32","quantization":{"min":-0.010290270533969484,"scale":8.817712539819609e-7,"dtype":"uint16"}},{"name":"resnet_v1_50/heatmap_2/weights","shape":[1,1,2048,17],"dtype":"float32","quantization":{"min":-0.15040613358741295,"scale":0.000004452652049717664,"dtype":"uint16"}},{"name":"resnet_v1_50/heatmap_2/Conv2D_bias","shape":[17],"dtype":"float32","quantization":{"min":-0.1407969444990158,"scale":0.0000015466677712350049,"dtype":"uint16"}},{"name":"resnet_v1_50/embedding_2/weights","shape":[1,1,2048,34],"dtype":"float32","quantization":{"min":-0.8104082069726578,"scale":0.000024499915562387624,"dtype":"uint16"}},{"name":"resnet_v1_50/embedding_2/Conv2D_bias","shape":[34],"dtype":"float32","quantization":{"min":-0.028453139969463016,"scale":7.283351243911077e-7,"dtype":"uint16"}},{"name":"resnet_v1_50/offset_2/weights","shape":[1,1,2048,34],"dtype":"float32","quantization":{"min":-0.8704587259290419,"scale":0.000024981595853778038,"dtype":"uint16"}},{"name":"resnet_v1_50/offset_2/Conv2D_bias","shape":[34],"dtype":"float32","quantization":{"min":-0.0418645241014768,"scale":0.000001041846654094438,"dtype":"uint16"}},{"name":"resnet_v1_50/part_heatmap_2/weights","shape":[1,1,2048,24],"dtype":"float32","quantization":{"min":-0.09825015112699702,"scale":0.000003570266038991134,"dtype":"uint16"}},{"name":"resnet_v1_50/part_heatmap_2/Conv2D_bias","shape":[24],"dtype":"float32","quantization":{"min":-0.0033912463707546263,"scale":2.0476067931135286e-7,"dtype":"uint16"}},{"name":"resnet_v1_50/part_offset_2/weights","shape":[1,1,2048,48],"dtype":"float32","quantization":{"min":-0.07206880288106077,"scale":0.0000021984260533543032,"dtype":"uint16"}},{"name":"resnet_v1_50/part_offset_2/Conv2D_bias","shape":[48],"dtype":"float32","quantization":{"min":0.49567747116088867,"scale":1.1753488425542009e-7,"dtype":"uint16"}},{"name":"clip_by_value/Minimum/y","shape":[],"dtype":"float32","quantization":{"min":1,"scale":1,"dtype":"uint16"}},{"name":"clip_by_value/y","shape":[],"dtype":"float32","quantization":{"min":0,"scale":1,"dtype":"uint16"}},{"name":"resnet_v1_50/segment_2/weights","shape":[1,1,2048,1],"dtype":"float32","quantization":{"min":-0.5721212810188352,"scale":0.000012726249689003363,"dtype":"uint16"}},{"name":"resnet_v1_50/segment_2/Conv2D_bias","shape":[1],"dtype":"float32","quantization":{"min":0.5669653415679932,"scale":1,"dtype":"uint16"}}]}]}